p1_navigation/checkpoint.pth (torch, 29207 bytes, 6 tensors)

fc1.weight f4 [64, 37]
0	0xba4b4763	-0.0007754473
1	0xbe2548b9	-0.16141023
2	0x3e43f71d	0.19137235
3	0xbe2d8c2b	-0.16948001
4	0xbf01dc1f	-0.50726503
5	0xbd2d853b	-0.042363387
6	0xbd0aeaa2	-0.03391517
7	0x3d793840	0.06084466
8	0xbefd2298	-0.49440455
9	0xbf495234	-0.78641057
10	0x3e71398d	0.2355711
11	0xbf27f808	-0.6561284
12	0xbec0757e	-0.3758964
13	0xbe24cbea	-0.16093412
14	0xbf63a878	-0.8892894
15	0x3e274108	0.16333401
16	0x3e3c5b9e	0.18394324
17	0xbcfb5313	-0.030679261
18	0xbe695f92	-0.22790363
19	0xbf581a0c	-0.84414744
20	0xbf065624	-0.5247519
21	0x3ddf6ad2	0.10909046
22	0x3defbcf7	0.11705964
23	0x3ebb5ffb	0.36596665
24	0x3f106ada	0.5641304
25	0xbd2b9a3f	-0.041895147
26	0xbe8684f3	-0.26273307
27	0xbc85f43a	-0.016351808
28	0xbf123dfd	-0.57125837
29	0xbf63defb	-0.89012116
30	0x3b9fdf7d	0.004878937
31	0xbdd183ff	-0.102302544
32	0x3dbaeb9c	0.0912697
33	0xbe758d6c	-0.2397973
34	0xbf297120	-0.6618824
35	0x3d9319c8	0.07182652
36	0x3aafa15e	0.0013399532
37	0xbd6f741e	-0.058460347
38	0x3e80da08	0.25166345
39	0x3d09cb3e	0.033641092
40	0x3d1073e2	0.035266764
41	0xbd29aac7	-0.04142263
42	0x3c89a55d	0.016802484
43	0xbdcb475e	-0.099257216
44	0xbe0eab93	-0.13932638
45	0xbe97960a	-0.29606658
46	0xbe92d63e	-0.2867908
47	0x3d4068e9	0.04697505
48	0xbd916e6e	-0.07101141
49	0x3dd9852f	0.10621106
50	0xbd1fd52a	-0.03902165
51	0x3cb52ff8	0.0221176
52	0x3c4ea65d	0.012612906
53	0x3e0bab33	0.13639526
54	0xbd84da0a	-0.064869
55	0xbc1c01e1	-0.009521932
56	0xbd9839db	-0.0743291
57	0xbe093a8c	-0.1340124
58	0xbd49a2bb	-0.049227457
59	0xbe2bce74	-0.16777974
60	0xbd2970f7	-0.041367497
61	0x3e0e5983	0.13901334
62	0xbd43f9e2	-0.04784573
63	0xbbfc39b4	-0.0076973084
64	0xbd31e78c	-0.04343371
65	0xbd721ec0	-0.059111357
66	0x3d039212	0.032121725
67	0x3d590def	0.052991804
68	0x3b385efb	0.0028132785
69	0x3dcfabdf	0.10140204
70	0x3d07c975	0.03315111
71	0xbe20cd11	-0.15703227
72	0xbdfe3f74	-0.124144465
73	0x3d15d9f8	0.036584824
74	0xbef5ad27	-0.47983667
75	0x3e89c271	0.2690616
76	0x3e743706	0.23849115
77	0xbe9b88e6	-0.30377883
78	0xbf4f2eb3	-0.8093063
79	0xbf8b7154	-1.089396
80	0x3e27d8f5	0.16391356
81	0x3e82f514	0.25577605
82	0xbd613c1d	-0.05498897
83	0xbf4d6ef0	-0.802474
84	0x3d15360e	0.036428504
85	0xbe817f82	-0.25292593
86	0x3e25be6d	0.16185923
87	0xbe258a00	-0.16165924
88	0x3d23ad44	0.03996016
89	0xbf2e0241	-0.6797219
90	0x3e17f941	0.14841177
91	0x3e346886	0.17617998
92	0x3c1aea94	0.009455342
93	0xbf1877af	-0.5955762
94	0x3d92d48c	0.07169446
95	0xbd8761f2	-0.066104785
96	0xbda282b1	-0.07935084
97	0xbd6b8cab	-0.0575072
98	0x3d896ae2	0.067098394
99	0xbf3f6290	-0.7475977
100	0x3e8b45e3	0.27201757
101	0x3e5a12df	0.21296261
102	0xbea0300d	-0.3128666
103	0xbf911809	-1.133546
104	0xbc56c674	-0.013108838
105	0xba8175b0	-0.0009876993
106	0xbe654f0c	-0.22393435
107	0xbd8e91fe	-0.069614395
108	0x3e7d1258	0.24714029
109	0xbe057eab	-0.13036601
110	0x3cf41a12	0.029797588
111	0x3db0ef99	0.086394496
112	0xbf27de29	-0.65573364
113	0x3ea35a43	0.31904802
114	0xbe5d4c95	-0.21611245
115	0xbf3ac389	-0.7295461
116	0xbe3248a7	-0.17410527
117	0xbe897aa4	-0.2685138
118	0x3e79a2bb	0.24378483
119	0x3e629440	0.22126865
120	0x3eb6aab9	0.35677126
121	0xbeb57663	-0.35441884
122	0xbed0306a	-0.40661937
123	0x3ea99a77	0.3312566
124	0xbe816952	-0.25275666
125	0xbecc1387	-0.39858648
126	0xbdda0611	-0.10645688
127	0xbed887b2	-0.42291027
128	0x3e1db128	0.15399611
129	0xbe3b1492	-0.18269566
130	0xbef14e11	-0.47129872
131	0xbe6a12d6	-0.22858748
132	0x3e85a342	0.26101118
133	0x3e51da7d	0.20493503
134	0xbe8110e2	-0.25208193
135	0xbecc44fa	-0.39896375
136	0xbe484271	-0.19556595
137	0xbef14c9f	-0.4712877
138	0x3e1d65c0	0.15370846
139	0x3cec585f	0.028850732
140	0x3e6f17bb	0.23348896
141	0x3e23968d	0.159754
142	0xbd10c859	-0.035347316
143	0xbf0a9a1b	-0.54141396
144	0xbee32c2c	-0.44369638
145	0xbf730e15	-0.9494336
146	0x3e0ea8f1	0.13931634
147	0x3c383d60	0.011245102
148	0xbd5ab8eb	-0.053399008
149	0xbe136d2b	-0.14397113
150	0xbd8e0e1f	-0.06936287
151	0xbe2ae9ed	-0.16690798
152	0xbd3fa44f	-0.046787556
153	0x3ec90861	0.39264205
154	0xbec87214	-0.39149535
155	0xbe86484a	-0.26227027
156	0xbf06e0e1	-0.5268689
157	0xc00f1683	-2.235749
158	0x3c445861	0.011983962
159	0x3d9bb746	0.07603316
160	0xbd32b087	-0.04362538
161	0xbe002ceb	-0.12517135
162	0xbe1cb46a	-0.15303198
163	0xbdaa59ed	-0.08317933
164	0x3b7ced7a	0.0038593695
165	0x3d9fa903	0.07795908
166	0x3c8144f1	0.015779944
167	0x3dbad45d	0.09122536
168	0x3cb886f7	0.022525294
169	0xbd424c75	-0.047436196
170	0x3ca5aef3	0.020225024
171	0x3e575bc1	0.21031095
172	0x3e73ebff	0.23820494
173	0x3c38b73b	0.011274154
174	0x3d0befe3	0.03416432
175	0x3c87f3b2	0.016595695
176	0x3e70842a	0.23487917
177	0x3d8b3674	0.067974955
178	0x3ddb4ade	0.10707639
179	0x3d02cdc5	0.03193452
180	0x3e1a04b6	0.1504086
181	0x3dd76554	0.10517374
182	0x3e42430f	0.18970893
183	0x3cbabb60	0.022794425
184	0xbb48fb2c	-0.0030667288
185	0xbde8e5fa	-0.113719895
186	0x3de2ad84	0.11068252
187	0xbbc94c06	-0.006143096
188	0xbcc49440	-0.023996472
189	0xbcf7397b	-0.030178776
190	0x3e3ee613	0.18642454
191	0x3d3cebd3	0.046123337
192	0xbb9a6185	-0.0047113323
193	0xbe247253	-0.16059236
194	0xbfd81ce9	-1.6883823
195	0xbc800d70	-0.015631407
196	0xbe540821	-0.20706226
197	0x3dfb1ff4	0.12261954
198	0xbe2429f6	-0.16031632
199	0x3de350cc	0.11099395
200	0x3d7d67e3	0.061866652
201	0x3c94b7b5	0.018154005
202	0xbdc99479	-0.09842772
203	0xbdd26859	-0.10273809
204	0x3dad0d62	0.08449818
205	0x3e1fe561	0.15614845
206	0xbde18f1d	-0.11013625
207	0xbcd6617c	-0.026169531
208	0x3ea9ed5e	0.3318891
209	0x3e25933a	0.16169444
210	0x3b75adbc	0.0037487587
211	0xbd73af25	-0.059493203
212	0xbe81bcb8	-0.25339293
213	0x3ea99ce2	0.33127505
214	0x3e8ad1e3	0.27113256
215	0xbd161734	-0.036643222
216	0xbcf2022a	-0.029542048
217	0x3e40a7f8	0.18814075
218	0xbd30833e	-0.043093912
219	0xbdc9086a	-0.09816058
220	0x3b483e0b	0.0030554559
221	0xbd2c9fda	-0.042144634
222	0x3d336dc5	0.043805856
223	0xbe4d60ab	-0.20056407
224	0xbe8c2c6a	-0.27377635
225	0xbf02afce	-0.51049507
226	0xbf7124e3	-0.9419691
227	0xbda6e8ba	-0.08149858
228	0xbda4dc36	-0.080498144
229	0xbcd7f329	-0.026361065
230	0xbe1bfd4c	-0.15233344
231	0x3e83f7f4	0.2577511
232	0x3b7cef41	0.0038594755
233	0x3e074562	0.13210061
234	0xbd4ecdcb	-0.05048923
235	0xbe8da574	-0.27665293
236	0xbece5180	-0.40296555
237	0x3e17cb79	0.14823712
238	0xbf0b8451	-0.54498774
239	0xbdd293ee	-0.102821216
240	0xbe53cd9f	-0.20683907
241	0xbe7cf3d2	-0.24702385
242	0xbc81f1a2	-0.01586229
243	0xbeba1f06	-0.36351794
244	0xbd3ee958	-0.046609253
245	0xbe701af3	-0.2344778
246	0xbdad17ec	-0.08451828
247	0xbf0eee02	-0.5583192
248	0xbdb9028e	-0.090336904
249	0xbde65246	-0.11246161
250	0xbe34dfc9	-0.17663492
251	0x3eacf274	0.33778727
252	0xbe74cce4	-0.23906285
253	0xbf12369c	-0.5711458
254	0x3d7a123f	0.061052557
255	0x3e15aee0	0.14617491

fc1.bias f4 [64]
0	0x3d8143a6	0.06311731
1	0xbda00e45	-0.07815222
2	0xbdb670b4	-0.08908215
3	0xbdf33f07	-0.11877256
4	0x3e704b9d	0.23466344
5	0xbd438771	-0.04773659
6	0xbe82608e	-0.2546429
7	0x3c8ea39a	0.017411996
8	0xbd71d2f4	-0.05903907
9	0xbea4c265	-0.3217956
10	0x3d96225a	0.07330771
11	0x3de54d30	0.11196363
12	0x3da33e41	0.07970858
13	0xbc16ccf2	-0.009204136
14	0xbe2f8e26	-0.17144069
15	0xbe08b3cb	-0.13349836
16	0xbd3c26e1	-0.045935515
17	0xbd1ad5a0	-0.037801385
18	0x3ca80b39	0.020513164
19	0xbdc90164	-0.09814718
20	0x3cdd114f	0.026985792
21	0x3cdc15cd	0.026865864
22	0xbcb996a5	-0.02265484
23	0xbd384615	-0.04498871
24	0xbe868279	-0.26271418
25	0x3ad2f5ad	0.0016094946
26	0x3dca8a51	0.09889663
27	0xbe6b989a	-0.23007432
28	0x3e005ad1	0.12534644
29	0x3e5aa3b4	0.2135151
30	0xbc81f991	-0.015866073
31	0xbe40aa16	-0.18814883
32	0x3e0cbf5b	0.13744871
33	0x3d2242d0	0.0396145
34	0xbe2a828d	-0.16651364
35	0xbc86835b	-0.016420057
36	0xbd93abe3	-0.07210519
37	0x3c5c0dba	0.013431007
38	0xbd038af4	-0.032114938
39	0xbe9cb75a	-0.30608636
40	0xbe1a1a48	-0.15049088
41	0x3d6cdf96	0.057830416
42	0xbe042166	-0.12903365
43	0x3eafe4e4	0.34354317
44	0xbdc5d18a	-0.09659107
45	0xbd9aa46f	-0.075508945
46	0xbe5849bf	-0.21121882
47	0xbe38a4c3	-0.18031602
48	0xbda23414	-0.07920089
49	0x3d477c70	0.048702657
50	0xbdbbc67b	-0.091687165
51	0x3cd24815	0.025669137
52	0xbd08c6d4	-0.033392742
53	0xbe90d95f	-0.2829084
54	0xbe4a6c6f	-0.19767927
55	0xbd94ea3b	-0.072712384
56	0x3ded2bb9	0.11580605
57	0xbc81907a	-0.015815962
58	0xbe43de7d	-0.19127841
59	0xbdda8de4	-0.10671595
60	0xbd959978	-0.073046625
61	0x3d5441e9	0.05182067
62	0xbc3f8abc	-0.011690792
63	0x3cb28615	0.02179245

fc2.weight f4 [64, 64]
0	0x3ec0ff6f	0.3769488
1	0x3db596b5	0.08866636
2	0xbecf3ec5	-0.40477577
3	0xbdeabd63	-0.11461904
4	0x3cfff115	0.031242887
5	0xbe89fac2	-0.26949126
6	0xbe631416	-0.22175631
7	0xbee24c09	-0.44198635
8	0x3e6e933d	0.23298354
9	0x3b76e74f	0.0037674492
10	0xbe2b302f	-0.167176
11	0xbecdc075	-0.40185896
12	0x3e8e62ca	0.27809745
13	0x3d873a2e	0.06602894
14	0x3d2c3cc8	0.042050153
15	0xbdafd40c	-0.085853666
16	0xbefc1b88	-0.49239755
17	0xbe350d94	-0.17680961
18	0x3da27d6b	0.07934078
19	0xbe46954b	-0.19392888
20	0x3e802512	0.25028282
21	0x3d9cea47	0.07661872
22	0x3e523f3e	0.20531937
23	0xbd0b266f	-0.0339722
24	0x3cd8cc50	0.026464611
25	0xbede608e	-0.4343304
26	0xbe93ce0e	-0.28868145
27	0xbe551dde	-0.20812175
28	0x3db91f2c	0.09039149
29	0xbe402ed0	-0.18767858
30	0xbd8889d9	-0.06666917
31	0xbe1799ac	-0.14804715
32	0xbd169a30	-0.03676814
33	0x3b9b44c6	0.004738423
34	0x3db5c636	0.08875696
35	0xbd19f113	-0.037583422
36	0xbe71e05f	-0.23620747
37	0xbe878c2b	-0.26474127
38	0xbe54dff6	-0.2078856
39	0x3e18f356	0.14936575
40	0xbde60dca	-0.11233099
41	0xbc23401f	-0.009964018
42	0x3daff6d1	0.08591998
43	0xbdc019ae	-0.09379898
44	0xba93575a	-0.0011241243
45	0x3ed5d599	0.41764525
46	0xbdb06f65	-0.08614997
47	0xbd69da45	-0.057092924
48	0x3ea364a3	0.31912717
49	0xbe84fe19	-0.2597511
50	0xbe5d91c8	-0.21637642
51	0x3e34f9ca	0.17673412
52	0x3e0b1563	0.13582377
53	0xbea99af9	-0.33126047
54	0x3e600686	0.21877488
55	0xbf0531dc	-0.52029204
56	0x3e893dcc	0.2680496
57	0xbe083819	-0.1330265
58	0x3de55034	0.11196938
59	0xbd608f22	-0.054824002
60	0x3da5219a	0.080630496
61	0x3ee5f68a	0.44914657
62	0xbf022886	-0.50843084
63	0x3d0949a7	0.033517506
64	0x3ddd7c8d	0.10814772
65	0x3d935390	0.07193673
66	0xbdc128e9	-0.09431631
67	0xbd8b5d76	-0.06804936
68	0x3ea47904	0.32123578
69	0x3e38562e	0.18001625
70	0xbc9bfc2d	-0.019041145
71	0xbe1ba4bf	-0.15199564
72	0xbd5a573e	-0.053305857
73	0x3d9fcee9	0.07803137
74	0xbe4ec191	-0.20191027
75	0x3e6952a5	0.22785433
76	0xbdbdb85a	-0.09263678
77	0x3d8d84e9	0.06910116
78	0x3da8814a	0.08227785
79	0x3e67f869	0.22653355
80	0xbe405437	-0.18782125
81	0xbdc99053	-0.09841981
82	0xbdcb7565	-0.099345006
83	0xbee30981	-0.44343188
84	0xbec74656	-0.3892085
85	0xbd8e9775	-0.06962482
86	0x3d0431e6	0.03227415
87	0x3e21da24	0.1580587
88	0xbd0df1f1	-0.03465456
89	0x3d19a19f	0.03750765
90	0xbe1b8b18	-0.15189779
91	0x3cdec72f	0.027194588
92	0x3d8399d5	0.064258255
93	0x3e2c019f	0.16797493
94	0x3efc8e16	0.49327153
95	0x3e507b78	0.203596
96	0xbf469dee	-0.7758473
97	0x3e800b81	0.25008777
98	0x3e8fbaeb	0.28072295
99	0x3e9c02d6	0.30470914
100	0xbe9edfd3	-0.3103014
101	0x3d9112b6	0.07083647
102	0xbe40c02f	-0.18823312
103	0x3ccf4066	0.025299262
104	0xbe35627d	-0.17713352
105	0xbdef1b31	-0.11675108
106	0xbe822200	-0.25416565
107	0xbde69723	-0.11259296
108	0xbc7c139a	-0.015385533
109	0xbea2fa63	-0.31831655
110	0xbca70d3e	-0.020392057
111	0xbc3b73f7	-0.011441222
112	0x3d960f63	0.073271535
113	0xbe9bceb6	-0.30431145
114	0xbecc8333	-0.39943847
115	0xbd1b7894	-0.03795679
116	0xbd5d3410	-0.05400473
117	0x3d1f651e	0.038914792
118	0x3e604f7b	0.2190532
119	0xbcc2cee8	-0.023780301
120	0x3da80914	0.082048565
121	0xbd821d9b	-0.06353303
122	0xbea57a60	-0.32319927
123	0x3e8ec575	0.27885023
124	0xbda8d5bb	-0.08243891
125	0xbe1f9883	-0.15585522
126	0xbd2db640	-0.042410135
127	0x3d480058	0.048828453
128	0xbeded5bd	-0.43522444
129	0xbe3c114e	-0.18365976
130	0x3d722714	0.0591193
131	0xbec0bd46	-0.37644404
132	0xbead5735	-0.33855596
133	0xbd0c6f1f	-0.03428566
134	0xbd61266c	-0.054968283
135	0xbd779c4b	-0.060451787
136	0xbe1e6619	-0.15468635
137	0xbde6e565	-0.11274222
138	0x3e9c5093	0.30530223
139	0x3c06dd86	0.008231526
140	0x3dad2bfe	0.084556565
141	0xbe5e1df0	-0.21691108
142	0x3d4d4c29	0.05012146
143	0x3d055d71	0.032559816
144	0xbd11e21b	-0.03561602
145	0xbe8aac66	-0.27084655
146	0xbc32dd32	-0.010916995
147	0x3e05d7b5	0.13070567
148	0xbdbc66bb	-0.09199282
149	0x3de5f67f	0.11228656
150	0xbeced0d0	-0.40393686
151	0xbce9386b	-0.028469285
152	0x3e7492ae	0.23884079
153	0x3e87f5d2	0.26554734
154	0x3db800d1	0.08984531
155	0xbe37e957	-0.17960106
156	0x3e8a201c	0.26977623
157	0xbe4e7dcd	-0.20165177
158	0xbeb56f0f	-0.35436293
159	0x3cccfe74	0.025023676
160	0xbcad9804	-0.02119065
161	0xbe09defa	-0.13463965
162	0xbea0537f	-0.31313702
163	0x3e8fb3a3	0.2806674
164	0x3e9a3fc4	0.30126774
165	0x3e1366d0	0.14394689
166	0x3f32c3da	0.69830096
167	0x3da11478	0.07865232
168	0x3e2253f3	0.15852337
169	0x3e5dca3a	0.21659175
170	0x3f2bd060	0.6711483
171	0xbe08a9d6	-0.13346037
172	0xbd7ef741	-0.06224752
173	0xbe52eccc	-0.20598143
174	0x3e82dd38	0.25559402
175	0xbc4831f4	-0.012218941
176	0x3d81005e	0.06298898
177	0xbc6b1b14	-0.014349718
178	0xbf1a5f87	-0.60302013
179	0xbdefc5a4	-0.11707619
180	0xbe414caf	-0.18876909
181	0x3d5949d4	0.053048924
182	0xbe8e4118	-0.27784038
183	0xbd82a750	-0.063795686
184	0xbd4702ba	-0.048586585
185	0xbbf04bfc	-0.007333277
186	0x3de04781	0.10951138
187	0xbe91faa8	-0.28511548
188	0x3dcdcd8b	0.1004897
189	0x3e75485d	0.23953386
190	0xbc8ff339	-0.017572032
191	0xbdbb07e8	-0.09132367
192	0xbeb6dd86	-0.35715884
193	0xbdac3a7a	-0.08409591
194	0x3f1d2a64	0.6139281
195	0xbd6dc225	-0.05804648
196	0xbe57cf87	-0.21075259
197	0xbda5c901	-0.08094979
198	0x3dfaa794	0.12238994
199	0xbec395ad	-0.3820013
200	0x3c44a25a	0.012001598
201	0x3b7724ee	0.003771122
202	0xbe31516d	-0.17316218
203	0xbc423ba3	-0.011855039
204	0xbd1749f8	-0.036935776
205	0xbdf4b716	-0.11948983
206	0xbec18fe7	-0.378051
207	0xbe8f30c3	-0.2796689
208	0xbf01d488	-0.5071492
209	0x3d429bd9	0.04751191
210	0xbe168301	-0.14698412
211	0xbce5c7f2	-0.028049443
212	0x3e32d1b9	0.17462815
213	0x3cf8b56e	0.03035995
214	0x3d9a0d53	0.07522073
215	0x3ef84803	0.4849244
216	0xbea2c73d	-0.31792632
217	0xbdfe7145	-0.12423948
218	0x3a7f7c42	0.0009745994
219	0x3e8cd950	0.27509546
220	0x3ed254b7	0.41080257
221	0xbc89d02d	-0.016822899
222	0x3e413715	0.18868668
223	0x3ddc324a	0.107517794
224	0xbca68d82	-0.020331148
225	0x3e63cf83	0.22247128
226	0xbebf2839	-0.37335375
227	0xbf0c15a0	-0.547205
228	0xbe8876ed	-0.26653233
229	0x3f363326	0.71171796
230	0x3d177144	0.036973253
231	0x3c0d34e3	0.008618566
232	0xbd11c34d	-0.035586644
233	0xbcd5550a	-0.026041526
234	0x3f349733	0.7054321
235	0xbdb575ab	-0.08860334
236	0xbdb74f59	-0.08950681
237	0xbd88f86a	-0.06688006
238	0x3d3f60dc	0.04672323
239	0xbe037927	-0.12839185
240	0x3f0f4434	0.55963445
241	0x3ed71d6f	0.42014644
242	0x3e1f70ce	0.15570375
243	0x3d8ae597	0.06782072
244	0xbdd9ecd1	-0.10640872
245	0x3db8e568	0.09028131
246	0xbdda2c2e	-0.10652958
247	0x3e62da4f	0.2215359
248	0xbe20e4e1	-0.1571231
249	0xbe797d96	-0.24364313
250	0x3e11ff72	0.14257601
251	0xbe172ea4	-0.14763886
252	0xbe50284f	-0.20327877
253	0x3e8b51c4	0.2721082
254	0xbecc1b8f	-0.39864776
255	0xbc816944	-0.015797265

fc2.bias f4 [64]
0	0x3dccaf12	0.099943295
1	0x3e464abe	0.1936445
2	0x3eb31cab	0.3498281
3	0xbe686a14	-0.22696716
4	0x3e02a07e	0.12756535
5	0xbd8d7eb9	-0.06908936
6	0xbd8d44e3	-0.06897905
7	0xbe4afb4c	-0.19822425
8	0x3ebd60ce	0.3698792
9	0x3f4aaae4	0.7916701
10	0xbdc82d02	-0.097742096
11	0x3ec22804	0.37921154
12	0x3db71f17	0.08941477
13	0xbe15cdf0	-0.1462934
14	0xbdbbefe5	-0.091766156
15	0x3ea942ec	0.3305887
16	0xbd1b909d	-0.03797971
17	0x3e688dde	0.22710368
18	0x3d22068d	0.03955703
19	0x3f319256	0.69363916
20	0x3f141c33	0.5785553
21	0x3f5ee195	0.8706296
22	0xbe4b5c5d	-0.19859453
23	0xbe2d78ac	-0.16940564
24	0xbeaa17b6	-0.33221215
25	0xbe70649b	-0.23475878
26	0xbcead65d	-0.02866667
27	0xbe66f43c	-0.22554106
28	0xbdd1010a	-0.10205276
29	0x3dd10cf9	0.102075525
30	0x3dd7eb1c	0.105428904
31	0x3ea60142	0.32422835
32	0xbd8bb185	-0.068209685
33	0x3df992a9	0.12186176
34	0x3d2e2a5c	0.042520866
35	0x3dfa742b	0.122291885
36	0xbdbf4034	-0.09338418
37	0xbe634aeb	-0.22196548
38	0x3f240e6c	0.64084506
39	0x3d3acba6	0.04560437
40	0xbe637097	-0.22210918
41	0x3f39222a	0.72317755
42	0x3f3126f9	0.6920009
43	0xbd9cc068	-0.07653886
44	0x3e0ed03c	0.13946623
45	0x3d5a6b3f	0.053324934
46	0x3f208458	0.6270194
47	0xbe48b05a	-0.19598523
48	0xbd84f4c1	-0.064919956
49	0x3dd79957	0.10527294
50	0xbeb120af	-0.34595248
51	0x3f3b037e	0.73052204
52	0xbdff21d7	-0.12457626
53	0xb95dd882	-0.00021156858
54	0x3f36a541	0.7134591
55	0xbd70e9b4	-0.058816627
56	0xbe9cca66	-0.30623168
57	0xbe9e3bad	-0.30904904
58	0xbd327519	-0.043568704
59	0xbeb15834	-0.34637606
60	0x3d30419f	0.04303133
61	0x3f25ad90	0.6471796
62	0x3dbb1d5d	0.0913646
63	0xbe1bd2d4	-0.15217143

fc3.weight f4 [4, 64]
0	0x3dce0300	0.10059166
1	0x3de20581	0.11036206
2	0x3e9b2df2	0.3030849
3	0xbe57de37	-0.21080862
4	0x3e6fbc6a	0.23411718
5	0x3ef77827	0.48333856
6	0x3e08bcab	0.13353221
7	0xbd87c753	-0.06629815
8	0x3ed169a2	0.40900904
9	0x3e52ebb8	0.20597732
10	0xbd3e4604	-0.04645349
11	0x3eabdea8	0.3356831
12	0x3d8de1e2	0.06927849
13	0x3e9fef25	0.3123714
14	0xbcd11cb3	-0.02552638
15	0x3e3f5b81	0.1868725
16	0xbcccb063	-0.024986451
17	0x3e9718a4	0.29510987
18	0x3e36122a	0.17780367
19	0x3e6b96b1	0.23006703
20	0x3e5ae9bb	0.21378224
21	0x3e9304d1	0.28714612
22	0xbf1eb003	-0.6198732
23	0xbe3998d3	-0.18124704
24	0xbe854520	-0.260293
25	0xbea98caf	-0.33115146
26	0xbeafd302	-0.34340674
27	0xbdeb636c	-0.114935726
28	0xbbe0e4e2	-0.0068632225
29	0x3d2a19aa	0.04152838
30	0x3e79fbce	0.24412462
31	0x3de73c8a	0.11290844
32	0x3d0e2e0e	0.03471189
33	0x3e1a6f1d	0.15081449
34	0x3c54803b	0.012970026
35	0x3e9c2d67	0.3050339
36	0xbe9b310a	-0.3031085
37	0xbe4addb0	-0.1981113
38	0x3e6de6bb	0.23232548
39	0x3e504f79	0.20342816
40	0x3e850f9c	0.25988472
41	0x3e4adc7c	0.1981067
42	0x3e48c051	0.19604613
43	0xbeae8f25	-0.34093586
44	0x3e486ce9	0.19572796
45	0x3e61718f	0.22015975
46	0x3e42b240	0.1901331
47	0x3d935147	0.07193237
48	0xbdc41b90	-0.0957557
49	0x3cf4c172	0.029877398
50	0xbec042f2	-0.37551075
51	0x3e967895	0.29388872
52	0xbe720892	-0.23636082
53	0x3d27d819	0.04097757
54	0x3e6190c0	0.22027874
55	0x3f09baeb	0.5380084
56	0xbed061dc	-0.4069966
57	0x3c18f5fe	0.009335993
58	0x3e6a47ee	0.22879001
59	0xbf42a519	-0.7603317
60	0xbeca7e6a	-0.3954957
61	0x3e876e7e	0.26451486
62	0x3e142b9b	0.14469759
63	0x3e2b11dd	0.16706033
64	0x3e44cc66	0.19218597
65	0x3ec51809	0.384949
66	0x3eab69e2	0.3347922
67	0xbe2bc2b2	-0.16773489
68	0x3dddacc5	0.10823969
69	0x3f0665a7	0.5249886
70	0x3e604ad5	0.21903546
71	0xbe4bd1e0	-0.1990428
72	0x3eccbea1	0.39989188
73	0x3e83ff77	0.25780842
74	0x3ef86c38	0.48520064
75	0x3e998ca3	0.2999011
76	0x3e252455	0.16127141
77	0x3ec6d0b8	0.38831115
78	0xbca5de60	-0.020247638
79	0x3e30beeb	0.1726033
80	0xbdcc4b08	-0.099752486
81	0x3e98a638	0.29814315
82	0x3d9fb82a	0.077987984
83	0x3e3af578	0.18257701
84	0x3e7b73bc	0.24555868
85	0x3ea7eccd	0.32797852
86	0x3b4b491f	0.0031018925
87	0xbd54e2e5	-0.051974196
88	0xbdf48847	-0.11940055
89	0xbe5de4c4	-0.21669298
90	0x3e6ced5e	0.23137423
91	0xbd20e5cb	-0.039281648
92	0xbd866694	-0.06562534
93	0x3e7bb3a1	0.24580242
94	0x3f0a5daa	0.5404917
95	0x3e9b6124	0.3034755
96	0x3d1b73bd	0.037952174
97	0xbd3e652f	-0.046483215
98	0x3e86e350	0.263453
99	0x3dfef883	0.124497436
100	0xbe2419a3	-0.16025405
101	0xbe03cd62	-0.12871316
102	0x3e6fc3cc	0.23414534
103	0x3e787815	0.24264558
104	0x3e823957	0.25434372
105	0x3e426c9f	0.18986748
106	0x3e492282	0.1964207
107	0xbd2a692f	-0.041604217
108	0x3de79b3e	0.11308907
109	0x3e9d4b07	0.30721304
110	0x3e530527	0.20607434
111	0xbe7157ed	-0.23568697
112	0x3e3757f1	0.1790464
113	0xbd8b8057	-0.06811588
114	0xbe6cabca	-0.23112407
115	0x3e61ca6a	0.22049871
116	0xbe9f9604	-0.3116914
117	0x3edf5fa9	0.4362767
118	0x3e672707	0.22573482
119	0x3f1275f2	0.5721122
120	0xbdcbb3e5	-0.099464215
121	0xbe7b66e6	-0.24550971
122	0xbe205208	-0.15656292
123	0x3c651cef	0.013983949
124	0xbe56d505	-0.20979698
125	0x3deec5aa	0.11658795
126	0xbe3c019b	-0.18359987
127	0xbea2e0fc	-0.31812274
128	0x3e7523b3	0.239394
129	0x3eb8b74b	0.3607734
130	0x3ee22924	0.44172013
131	0xbe1fb268	-0.155954
132	0x3ee5304b	0.44763407
133	0x3e48ed38	0.19621742
134	0x3e3672e9	0.17817272
135	0xbe1d0d34	-0.15337068
136	0x3e4dff96	0.2011703
137	0x3e78391f	0.2424054
138	0xbf570879	-0.83997303
139	0x3dfad839	0.122482724
140	0x3e6e9d58	0.2330221
141	0xb9877d0c	-0.00025842374
142	0xbd703259	-0.058641765
143	0x3eb871fe	0.3602447
144	0x3d00b19c	0.03141938
145	0x3d2f9d90	0.042874873
146	0xbd4b311a	-0.049607374
147	0x3e3930ef	0.18085073
148	0x3e437aec	0.1908986
149	0x3e9c14c7	0.30484602
150	0xbec4ff6d	-0.38476124
151	0x3e53d086	0.20685014
152	0xbe328d88	-0.17436802
153	0xbe16876c	-0.14700097
154	0x3e413ec6	0.18871602
155	0x3dbe0b10	0.09279454
156	0x3db33402	0.08750154
157	0x3e614ff9	0.22003163
158	0x3f036307	0.5132298
159	0xbdd18fd7	-0.102325134
160	0xbe81d0d7	-0.25354645
161	0x3d791c52	0.060818024
162	0x3e54f8d4	0.20798045
163	0x3e68d763	0.22738414
164	0x3d0828a1	0.03324187
165	0x3e273489	0.16328634
166	0x3e8b7024	0.27233994
167	0x3e0e41e2	0.1389232
168	0x3e564203	0.20923619
169	0x3e96e7f5	0.29473844
170	0x3e55bc7d	0.20872684
171	0x3e76c156	0.2409719
172	0x3d13c47d	0.036076058
173	0x3e8c3fcd	0.27392426
174	0x3e8690a9	0.26282242
175	0x3ef5294b	0.47883067
176	0x3efce3cc	0.49392545
177	0x3dc067f3	0.09394827
178	0xbe84f107	-0.2596514
179	0x3ec77f5b	0.38964352
180	0xbd58c5ef	-0.05292314
181	0xbdf3e549	-0.11908967
182	0x3e3f248f	0.1866629
183	0x3d70ab32	0.058757015
184	0xbf130bf1	-0.57440096
185	0xbebfd187	-0.37464544
186	0xbdbfc9ba	-0.09364648
187	0xbdd9ff89	-0.106444426
188	0xbf0b6067	-0.54443973
189	0x3e818d2d	0.2530302
190	0xbf4d4e7e	-0.80197895
191	0xbf48c4cc	-0.7842529
192	0x3ea16a9e	0.31526655
193	0x3d82d1b6	0.063876554
194	0x3dfae01a	0.12249775
195	0xbed521fe	-0.41627496
196	0xbe81e25c	-0.2536801
197	0x3f009d81	0.5024033
198	0xbe9430e6	-0.28943557
199	0xbe31e06d	-0.17370768
200	0x3eaa692f	0.33283374
201	0x3e9af3df	0.30264184
202	0x3e96abb3	0.2942787
203	0x3ded1296	0.115758106
204	0x3eb5f6d9	0.35539892
205	0x3d8c4b39	0.06850285
206	0x3d72be00	0.05926323
207	0x3e154b7f	0.1457958
208	0x3e051ddb	0.1299967
209	0x3df8881f	0.12135338
210	0x3f05496d	0.52065164
211	0x3e833c3d	0.25631896
212	0x3d999e67	0.07500916
213	0x3ead4640	0.3384266
214	0xbf59be0f	-0.8505563
215	0x3dde00ba	0.10839982
216	0xbe6c22bb	-0.23060124
217	0xbcd623ba	-0.026140083
218	0x3dd257ca	0.10270651
219	0x3e0e6c26	0.13908443
220	0x3d5a1f56	0.05325254
221	0x3e2568c6	0.16153249
222	0x3e265335	0.16242678
223	0x3e48b60d	0.19600697
224	0xbe090213	-0.13379698
225	0x3e63ad1f	0.22234009
226	0x3cb7da8f	0.022443084
227	0xbdef3b68	-0.11681253
228	0xbf308a46	-0.6896099
229	0x3e922cb9	0.28549746
230	0x3e923cf2	0.28562123
231	0x3eb58503	0.35453042
232	0xbdbcf959	-0.09227247
233	0x3e947565	0.28995815
234	0x3e82e5a7	0.25565836
235	0xbf033d38	-0.5126529
236	0x3eb0ea1d	0.34553614
237	0x3e2f02c3	0.17090897
238	0x3e412060	0.18860006
239	0xbf2ec32b	-0.6826655
240	0x3e93f9f0	0.28901625
241	0xbe8a9178	-0.2706411
242	0x3d9c3153	0.07626595
243	0x3e6f1237	0.23346792
244	0xbe76cf47	-0.24102508
245	0x3ee304f5	0.4433972
246	0x3e740562	0.23830178
247	0x3e80d176	0.25159806
248	0xbe783076	-0.24237236
249	0xbe589bef	-0.21153234
250	0xbeb4e3c9	-0.35330036
251	0xbe617e42	-0.2202082
252	0xbf279d6f	-0.654746
253	0x3e1e918d	0.1548521
254	0xbdf356a3	-0.11881759
255	0x3e1aab89	0.15104498

fc3.bias f4 [4]
0	0x3f1ca904	0.611954
1	0x3eed9254	0.46400702
2	0x3eba6189	0.36402538
3	0x3ee97ace	0.45601505
