p1_navigation/checkpoint.pth (torch, 29207 bytes, 6 tensors)

fc1.weight f4 [64, 37]
00000000: 30d7 e5be 2de1 173e 594a 963d 7779 74be
00000010: 4cf1 d8be 0227 703d 8c13 50be 387a 8b3e
00000020: c17d c3be 1d3a bcbe 6106 3ebe dc10 9f3d
00000030: 1d34 2ebe 37fa 29bd 2e60 80bc 23ad b9be
00000040: 8d2c 3e3e 92ce e63d b4d7 b43a 8f33 b3bb
00000050: f6c1 62bd 5c99 f53d 3a96 a4bc 4388 1f3e
00000060: f50f f73d eeed 5ebe d72a bebd f772 e93c
00000070: de92 b83e 6b70 03be 8718 2dbd a627 373e
00000080: c8e0 29be 98dd e3bd 0050 efbd fe13 a3bd
00000090: d4c4 efbc 881e 703d a234 763d e9bf b63d
000000a0: 215d f5bc b59b d8bc 400b e7bd 39a4 debd
000000b0: 928f 53bd b062 1fbe e52f 84bd e7a4 bd3c
000000c0: 68bd 5fbd b413 3c3c 5b2f 853d 9a85 0b3e
000000d0: 5031 6a3d bb51 f1bc fa37 e8bc ed7a 84bd
000000e0: 3f56 9bbb f302 ebbd aac8 f9bd 9d3b ddbd
000000f0: f3aa dbbd 651b b53d 0de5 55bd 8633 323c
00000100: c748 2d3c 9c26 6dbe 3516 12be 0bae 013e
00000110: 7877 b8bb c5bd f0bb afa0 95bd 3a54 b1bd
00000120: e5ac e83d 5630 a73d b506 e13b 6d47 3b3e
00000130: 6555 cc3d 3fd1 d7bd 5a5e 10bf ed50 45bf
00000140: 42de cd3d 83da ac3e 835a 983d 5aa8 f0be
00000150: 0eca a2bd 1f19 7f3d 7beb 113e 6735 893d
00000160: 6ae3 093e cb4a 583d 5e04 3c3e 2e34 c33d
00000170: 7af3 e1bd 4045 e239 0e90 84be 3972 72bd
00000180: f8c6 473e 74d2 92bd ebce 6abe 85d3 96be
00000190: cad7 7f3e 592f 923e f358 90bd 8653 53be
000001a0: b30d 3bbe 5f74 27be e5bd 943d aff1 993d
000001b0: 7aef 663d 810e a03c f537 42bd 92a7 243e
000001c0: 09d2 8d3e 4c86 d0bd 1033 c9bc 7366 22bf
000001d0: 5cb7 4bbd 36d6 2fbe 22b2 263e 42fc 66bd
000001e0: 511e 38be ac2e 95be 2a7d 99be fa22 503e
000001f0: 2289 80be ee98 c2be ca6f 32bc 6401 96be
00000200: a0ce 7ebd 92e8 b9bd aa6f 3bbd c9f5 81ba
00000210: eb3a 6fbe 25a7 613d 042c 36be 8682 cabe
00000220: 7f1d 4f3d d188 e6be c932 49be e442 603e
00000230: f26e a7bd 4b7f 6e3d dc39 913d 6be3 06be
00000240: 5bc6 9bbe 5e22 8dbf ecd0 103e 7169 c4bc
00000250: d297 21be 391c 22bd f7d4 9fbb 99d7 2bbe
00000260: 94e3 593d 9d89 aa3e 2581 3ebe 5cfb 9bbd
00000270: 633e 11bf 7d1e ebbf 7de6 153d 952f 7abc
00000280: 376a cdbd 0e94 1ebc f03c a5bd eb3a c9bd
00000290: 1b0f c03c 2af9 163d 7c61 7b3c f42b b4bc
000002a0: d046 a83c 5cb2 3dbd 91d3 14bd 6b77 583e
000002b0: ffaa 833e aefe f1bc 9902 463d 818d ed3d
000002c0: e37a 6f3e edfb 4d3e 4804 1d3d d8a2 153e
000002d0: 01ef d73d 0f20 ae3d 36e0 76be ab3c f73c
000002e0: 9a11 e93a bfc1 eabb 12ab 823c febe 0bbd
000002f0: ac74 83bc 0f0a f23d d260 5b3e 49e7 863d
00000300: 8be3 02bf 453b 573a 8f65 b4bf ad27 30be
00000310: d26a d73c 65d7 85bd 1d73 923c 1225 76bd
00000320: bdd2 453d 12e2 a5bd 7305 74bd 1b24 743d
00000330: 7fd1 23be eb01 ee3d 4dd7 d53d eb4d 213c
00000340: 7c86 d63d 4918 933e efc4 75bd 78f2 8d3d
00000350: 359d 20bd 6a4b bc3d 4318 353e 0c4d 623d
00000360: 785d 863c a77f debd 003b b3bd 774a 2cbd
00000370: 6094 59bd e400 ce3b 2102 3f3e d694 32be
00000380: bef1 60be cf79 94be 38aa 8abe 6bc0 76bd
00000390: d4bd aabe a7de 0e3d 3ee8 a8bd 3df4 173e
000003a0: ec72 8abd af5e 053e 7f2c babd d969 31be
000003b0: 5bed 43bd 087e 16be d76d 6fbd bb2d 033a
000003c0: 96c5 12bc 0b98 5ebd 896f fc3d 03bb 96be
000003d0: 122c 56bd 88e3 9ebe 32b9 04be c83d c63c
000003e0: e472 c6be ba10 81be 7aca 83bd b563 5c3d
000003f0: 6f46 b7be cd47 ae3e 56e3 8cbe aa40 d1bb
-0.44890738 0.14831991 0.073383994 -0.2387446 -0.42371595 0.05863095 -0.20319957 0.27241683
-0.3818188 -0.36763087 -0.18557121 0.077668875 -0.17012067 -0.04149839 -0.015670862 -0.36264905
0.18571682 0.11269869 0.0013797195 -0.0054687927 -0.055360757 0.119921416 -0.020091165 0.15579323
0.120635904 -0.2177045 -0.09285515 0.028497202 0.3604955 -0.12835853 -0.04225972 0.17886218
-0.16589653 -0.1112625 -0.11685181 -0.079627976 -0.02926866 0.058622867 0.06010879 0.08923323
-0.029951634 -0.026441434 -0.11281443 -0.10871167 -0.05165059 -0.1556499 -0.06454448 0.02314992
-0.05462399 0.011479307 0.06503173 0.13625184 0.057175934 -0.029457917 -0.028347004 -0.06468759
-0.004740506 -0.11475172 -0.12196477 -0.10802386 -0.10725965 0.08843116 -0.052220393 0.010876542
0.0105764335 -0.2315926 -0.14266284 0.12664048 -0.005629476 -0.007346841 -0.073060386 -0.08658643
0.11361102 0.08163516 0.0068672546 0.18288966 0.09977225 -0.105379574 -0.5639397 -0.7707661
0.10052158 0.3376046 0.07439139 -0.47003442 -0.07948695 0.062279817 0.14249985 0.06699639
0.13465658 0.052805703 0.18361041 0.09531437 -0.110327676 0.00043157674 -0.25891155 -0.059190962
0.19509494 -0.07169047 -0.22930495 -0.29458252 0.2498466 0.28551748 -0.07048216 -0.2063733
-0.18266945 -0.16352986 0.07262782 0.075168006 0.056380726 0.019538166 -0.047416646 0.16079548
0.27699307 -0.10181865 -0.024560481 -0.63437575 -0.049735412 -0.17171559 0.1627889 -0.056392916
-0.17980315 -0.2913717 -0.29978305 0.20325842 -0.25104624 -0.380073 -0.01089091 -0.29297936
-0.06220877 -0.090775624 -0.045760788 -0.0009915169 -0.23362319 0.055091042 -0.17790228 -0.39552706
0.05056524 -0.45026258 -0.19648279 0.21900517 -0.08175458 0.058226865 0.07091114 -0.1317269
-0.3042477 -1.1026113 0.14142197 -0.02397606 -0.15780571 -0.039577696 -0.0048776823 -0.16781463
0.05319555 0.33308116 -0.18603952 -0.07616302 -0.5673582 -1.8368679 0.036596764 -0.0152701335
-0.100300245 -0.009678854 -0.080682635 -0.09825691 0.023444703 0.036858715 0.015343066 -0.021993615
0.020541579 -0.046312675 -0.036334578 0.21139304 0.25716397 -0.029540386 0.04834232 0.11599255
0.23386721 0.20115633 0.03833416 0.14612901 0.10543633 0.085022084 -0.24108967 0.030180296
0.0017781735 -0.0071642096 0.015950713 -0.03411769 -0.016046844 0.11818325 0.21423653 0.06587083
-0.51128453 0.0008210431 -1.4093493 -0.17202635 0.026296053 -0.06535224 0.017877156 -0.060093947
0.04829668 -0.0809976 -0.05957551 0.059604745 -0.15997885 0.116214596 0.10441456 0.009845237
0.104748696 0.28729466 -0.060002264 0.06931013 -0.039212424 0.091940716 0.17685036 0.05524926
0.016401991 -0.108641915 -0.08751488 -0.042063203 -0.053120017 0.0062867273 0.18653156 -0.17439589
-0.21967217 -0.28999183 -0.27082992 -0.060242098 -0.33347952 0.034880307 -0.08247422 0.14839263
-0.06760201 0.130244 -0.09090518 -0.17325534 -0.04783378 -0.14696515 -0.05845436 0.0005004068
-0.008958241 -0.05434422 0.12325961 -0.29439554 -0.052288122 -0.31032968 -0.12961271 0.024199381
-0.3875953 -0.25208074 -0.06435104 0.053806026 -0.35795924 0.34039155 -0.27517194 -0.0063858824

fc1.bias f4 [64]
00000000: d50e ab3d 7fbe c8bd c751 63bd c026 10be
00000010: 2de8 783e 4fe4 9bbd 173e 23be 7e15 193e
00000020: 02f6 5cbd 3779 88be 32dd f13d 4c50 c83d
00000030: 104a 1e3e ee30 203d 1e91 11be f76f babd
00000040: 88ce 80bd 4627 adbd 99e4 bebc 4d64 26be
00000050: 66d1 a8bc 2553 00bc 93b9 9dbc af27 1abe
00000060: d7af 42be 1744 383e 4895 49bd 559b 47be
00000070: f672 283e c2d6 983d f235 833d cf7a 39bd
00000080: e0fb 6c3d 83a8 2d3d 53f0 1dbe 26a0 183d
00000090: ebc2 8dbd fb79 eb3c 5bd9 8dbd 4373 67be
000000a0: 1262 a4bc b3e3 efbb 3f64 afbb 56c1 343e
000000b0: 3324 723c d61e 94bd 7575 e0ba 1ed5 4dbe
000000c0: c081 a2bd eec0 403d 5f4a 94be f9ed f33d
000000d0: 9b82 4a3d 45c7 3cbe 30ec 45be e606 64bd
000000e0: 267a 003e 73f4 54bd 5b9d 35bd 3b0b 1abe
000000f0: e646 d6bb c21b 683d 3a1e 923b 888f f0bc
0.08352438 -0.09801959 -0.05549791 -0.14077282 0.24307318 -0.07611906 -0.15941654 0.14949605
-0.05394555 -0.2665498 0.11809768 0.097809404 0.1545794 0.039109163 -0.14215514 -0.09103387
-0.06289393 -0.084547564 -0.023302363 -0.16249199 -0.020607661 -0.007832323 -0.019253528 -0.150542
-0.1901239 0.17994724 -0.04921463 -0.19492848 0.16450104 0.07462837 0.064067736 -0.045283135
0.057857394 0.042397033 -0.15423708 0.037262104 -0.06921943 0.028744688 -0.06926223 -0.22602563
-0.020066295 -0.007320845 -0.0053525264 0.17651877 0.014779138 -0.07232444 -0.0017124849 -0.20100829
-0.07934904 0.047058992 -0.2896299 0.11910624 0.04944096 -0.1843539 -0.1932838 -0.05567064
0.12546596 -0.051990937 -0.04433952 -0.15043347 -0.0065392135 0.056667097 0.0044591697 -0.029365316

fc2.weight f4 [64, 64]
00000000: ef22 01be ffe1 293d 5001 72bd 251a 523e
00000010: 57ee 8bbe 8fc9 2abc 95aa 0d3e f690 29be
00000020: a98d 8bbd 7b95 21bd 7809 313d 9a84 8e3e
00000030: d572 84be d8c2 893e dff1 b73d 74bb 8dbd
00000040: 0634 25be 2281 94bd 0770 7abe 192b 8b3d
00000050: c011 febd e683 55bd 507c 1cbe f968 7b3d
00000060: a976 b5bd 351b aebc 8fe0 60be cb9a 9bbe
00000070: 6098 93be 41f9 06be a9c3 013e 2a02 6cbe
00000080: 676f 86bd 2c1a c3be 7ef8 3ebc 29c5 a4bd
00000090: 095c 353d 3ef9 02bf 4bfe 25bd 4153 10bd
000000a0: 43da 1ebe 3811 fcbe d94f a53d a4e2 bd3c
000000b0: d368 343d ef43 eebd 490c b4bd e555 283e
000000c0: 3201 5cbe 2d4e 1fbd 217e fabd 0640 c3be
000000d0: 9190 a73e afc5 5cbe 05b1 423d dcdb cc3c
000000e0: a3a1 94bc 5892 d9bd 7682 9fbe fe14 e73e
000000f0: 4d9c 213e cef3 293f 0c8c 79be 5b7d 543d
00000100: 235b d2bd 343b 77bc a680 40be f479 be3e
00000110: 07f8 473e 34e4 c03d 5cbf f9be 0b7a 7abd
00000120: 2b2b 87bc f726 44be 7067 63be 9d16 c93d
00000130: 8b7f 193e 5323 d5bd f808 7fbd 5df3 db3d
00000140: ee62 703d 38af b03d 83c5 e53c 0002 51be
00000150: d5b1 003e 9eb2 683e b1c9 673d ea65 6e3d
00000160: a95c 013e d1ba 2ebb 124b 123e 65d1 4abe
00000170: c919 433e e80b b7bb e59e efbd 9ecd 93be
00000180: f596 21be d13d e2bc e492 b7bd 1b24 123e
00000190: eb52 a0be bcd1 993e 80a8 b43e aace 15be
000001a0: 9dde 8c3d 3688 3e3e 3e88 f5be 5b4b cfbd
000001b0: ddbb d1bd 49b3 23be a65f 7fbe 4d43 c0bd
000001c0: 17fe 3ebe a6b8 3fbe fc09 903d 2053 923e
000001d0: 6de3 b33c 7147 1a3e 9513 4bbe 8c94 ca3d
000001e0: 349a 953c 18ca e3bd 21f1 8b3e 5e52 acbd
000001f0: 5f1c 0cbe bd03 0abe fdbe 50be d357 d4bb
00000200: 0743 4b3c 2052 c5bd ee07 393e 6118 5fbe
00000210: 209b c4be 5194 a53d 9779 7ebe df78 1a3c
00000220: 651d f73d 2ebd 773d dd77 373f daa5 d3be
00000230: e69a 483c 4fd5 b73d ce53 de3d 0bc7 99bc
00000240: dce8 5c3d 6369 dc3d 0a1d 0c3d 0a99 c93d
00000250: bac9 c4bd 3282 663d bbe7 56be 9163 1a3d
00000260: 47a9 f1be 62ee 45bc 5d64 8e3e ebed 333c
00000270: d19b 6bbe 5c2e a33d ab2d 9c3e f7dc fbbd
00000280: e8a6 6f3c 2278 e9be 97cc 02bd 340a 8cbd
00000290: 360c d0bd 306c aabe 5794 7abe 987e 86bd
000002a0: ec97 0cbd aa91 7dbe 5bef 693e 7cc2 98be
000002b0: d81a 363d 4af4 91bd bc79 30bc 2a93 12bd
000002c0: 8483 763e 8e74 f7bc af65 dfbc 2d74 38be
000002d0: 0fd0 683b 3519 6a3e 64a1 0ebe f1ff 13be
000002e0: c5a5 1dbe d562 a0bd fe01 02bd 6d82 0cbb
000002f0: a69a 82bc 0eec b7be c6e3 923d 9193 afbd
00000300: 6a20 94bc 479d cb3d e823 2a3e 5102 de3c
00000310: 945d c23e 939b 14be 2bdd cb3c 9f3d fd3d
00000320: 44e0 b6bd 9440 c3be 1abe 00bf 4144 2a3e
00000330: 9db6 86be 8461 b23d 9cc0 153e 227d 96be
00000340: 185d fc3d ed0b 35bd 71c6 55be be58 b9bd
00000350: bad1 8c3e 0adb 19bd ef9b 8cbd d1f4 92be
00000360: f3ca cfbd 7469 ffbe 68aa 4d3e ff4d 803d
00000370: 30e1 02bf f650 e7bd d946 833e e67a 983e
00000380: 8574 1e3d 5c7a a8be b60d 8b3d 512e 15bd
00000390: 0cba 523e 5f99 ce3d 4c37 83bd 6742 6cbe
000003a0: 3ecb bd3c 263e d03e e7c6 be3c 3741 c83b
000003b0: 88da 5e3c 9138 b13d d3c7 bcbd 3c28 64be
000003c0: a6d6 233e bce8 003e bd43 85bd 8a3f 23bf
000003d0: 647e 853e 7c12 2e3e 2e06 5cbe 4e4a 75be
000003e0: c08f f9bd 8d56 a2bd 0264 64be eaa2 d6bd
000003f0: 40a2 bcbe 939f f43d 7eae 06bf 6304 3cbe
-0.12610982 0.041475292 -0.059083283 0.20517786 -0.27330276 -0.010424032 0.13834603 -0.16559204
-0.06814129 -0.039449196 0.04322192 0.27835542 -0.2586886 0.26906466 0.0898168 -0.069205195
-0.16133127 -0.07251193 -0.24456798 0.067953296 -0.12405729 -0.05212774 -0.15281796 0.061379407
-0.08860523 -0.021253208 -0.21960662 -0.30391535 -0.2882719 -0.1318102 0.12672295 -0.230477
-0.06564217 -0.38105905 -0.011655925 -0.08045418 0.044277225 -0.51161563 -0.040525716 -0.035235647
-0.15512948 -0.49231887 0.0807187 0.02317936 0.04404528 -0.11634051 -0.08791406 0.16439016
-0.21484831 -0.038892914 -0.122310884 -0.38134784 0.32727483 -0.21559785 0.0475321 0.02500718
-0.01814348 -0.10623616 -0.3115422 0.45133203 0.1578228 0.6638764 -0.2436983 0.05187736
-0.10271289 -0.015089799 -0.18799075 0.37202418 0.19528209 0.09418526 -0.48778808 -0.061151545
-0.016500076 -0.19155489 -0.22207427 0.09818766 0.1499006 -0.10407128 -0.062264413 0.10739777
0.058688097 0.0862717 0.028048282 -0.20410919 0.12567838 0.22724387 0.056588832 0.05820266
0.12633003 -0.0026661644 0.1428645 -0.1980644 0.19052805 -0.005586136 -0.117002286 -0.2886781
-0.15780242 -0.027617367 -0.08963564 0.14271586 -0.3131326 0.30042827 0.35284805 -0.14629617
0.068783976 0.18606648 -0.47955507 -0.10121795 -0.1024091 -0.1598636 -0.2493883 -0.093878366
-0.18651615 -0.18722782 0.07033154 0.28579044 0.021959031 0.15066315 -0.19831689 0.09891614
0.018262006 -0.11122531 0.27332404 -0.08414148 -0.13682698 -0.13477989 -0.20385356 -0.006480196
0.012406117 -0.09634805 0.18069431 -0.21786644 -0.383996 0.0808493 -0.2485107 0.009428232
0.120661534 0.06048315 0.7166727 -0.41337472 0.012243962 0.08976232 0.10855828 -0.018771669
0.05393301 0.107622884 0.03420738 0.09843643 -0.09608789 0.056276508 -0.20986836 0.03769261
-0.4719946 -0.012080761 0.27810946 0.010982017 -0.23008658 0.07967827 0.30503592 -0.12298005
0.014627196 -0.45599467 -0.031933393 -0.068378836 -0.10158579 -0.33285666 -0.2447065 -0.065671146
-0.03432457 -0.24762598 0.22845213 -0.2983588 0.044459194 -0.071266726 -0.010771211 -0.035784878
0.24073607 -0.030206945 -0.027270166 -0.18013068 0.0035524403 0.22861178 -0.13928753 -0.14453103
-0.15395267 -0.07831351 -0.03174018 -0.0021440045 -0.015942883 -0.35922283 0.071723506 -0.08573068
-0.018081862 0.09942108 0.1661526 0.027100714 0.3796202 -0.14512472 0.024885735 0.12365269
-0.08929494 -0.38135207 -0.5029007 0.166276 -0.26311198 0.08710006 0.14624256 -0.29392344
0.12322444 -0.044200826 -0.2087648 -0.09050129 0.2750376 -0.037562408 -0.068656795 -0.28702405
-0.10146131 -0.49885142 0.20084536 0.062648766 -0.5112486 -0.11294739 0.2563999 0.29781264
0.03868534 -0.32905853 0.067897245 -0.036421124 0.20578784 0.10087847 -0.064070314 -0.23072205
0.023168202 0.40672415 0.023288203 0.00611129 0.013601907 0.08653367 -0.09217801 -0.22280973
0.1599985 0.12588781 -0.06507061 -0.6376883 0.2607299 0.16999239 -0.21486732 -0.23954126
-0.12185621 -0.079266645 -0.22303775 -0.10480292 -0.36842537 0.11944499 -0.52610004 -0.18361048

fc2.bias f4 [64]
00000000: e273 43bb e5b8 3d3e 17cb 8e3d f842 b83d
00000010: 5e59 893e 9392 abbc 36fd 08bb 005b 87bd
00000020: fa6e d33d 6bd7 293f 49c2 46be e3e3 a23e
00000030: b2fd 483d 1c02 8abb a9da e3bd 1509 8c3e
00000040: 284d e6bd 3803 2f3e 8d5f 89bd 7680 be3e
00000050: 6937 f53e ac7c 363f 389a 0abe 47ce 3fbe
00000060: 7efe 1c3d 6263 3cbe 69da 643d ef79 90bd
00000070: 8eaa 8d3e 9477 ec3d 9db3 d3bd 45a6 a33d
00000080: 5010 2cbe d812 e43e 801e 913e bce8 08be
00000090: fcd9 7cbe 7063 8dbe d0d1 c33e 75ab d83d
000000a0: 1852 1cbe 05db 3b3f 6ebc 163f 5490 693d
000000b0: 1a92 693d fda5 28be 2fc7 dd3d 4280 cebd
000000c0: 68df 04bd fe95 463e 6486 a3bd 52ed 0b3f
000000d0: 0e53 7fbd 755d d0bc 30cb 133f 6bab 5bbe
000000e0: cac5 b9be 3e37 0ebe 1f77 27be 3a07 5cbe
000000f0: e6ac 7bbe 554b f23e c6c6 033d 6a5d 54be
-0.002982371 0.18527563 0.0697233 0.08997148 0.26825994 -0.020943915 -0.0020902879 -0.06609154
0.103239015 0.66344327 -0.19410051 0.3181449 0.049070068 -0.0042116772 -0.111256905 0.2735068
-0.11245185 0.17091072 -0.06707678 0.37207383 0.47893837 0.71283984 -0.13535392 -0.18731032
0.03832864 -0.18397287 0.055872355 -0.07054507 0.27669185 0.11546245 -0.10336993 0.07990698
-0.16803098 0.44545627 0.28343582 -0.13370031 -0.2469253 -0.27614927 0.38246012 0.10579578
-0.15265691 0.7338107 0.5888127 0.057022408 0.0570241 -0.1646957 0.10829007 -0.10083057
-0.03243962 0.19393155 -0.07984617 0.54659 -0.062335066 -0.025435189 0.57731915 -0.2145211
-0.36283714 -0.1388826 -0.16354035 -0.21487132 -0.24577674 0.473231 0.032171987 -0.2073876

fc3.weight f4 [4, 64]
00000000: f534 cd3e 6bf2 3a3e abab 193f e7b0 9ebb
00000010: 34cb a53e 79a9 c23e 4dee 843d 7126 c3bd
00000020: 9258 4c3e 855b 603e f856 93be 0f5f 983e
00000030: f731 ad3e cd19 843d f8cd 0fbe a015 863e
00000040: 02c2 24be 8ff8 823e e13b b73e 2c7a 343e
00000050: ece4 403e fdc3 8e3e 8137 c5be e091 63be
00000060: 7bc4 18be cade a8be fb54 18bf cf16 33bf
00000070: 813f ee3d 06a4 b83e e571 70be cbec 173e
00000080: 1157 d9bd 8e85 c53e b390 0a3e b174 c53e
00000090: 8476 1cbd 9d61 e4bd 14ac 323e 2d93 8f3e
000000a0: cc08 833d c3ff 4a3e 54e5 4c3e 41de 533c
000000b0: f1dc 823d f464 a9be cea2 8a3b 902d 253c
000000c0: 2597 ffbd 76e8 a03d 966d 953d 4c92 993e
000000d0: a087 06be 91d3 20be 1843 463e defd 80bd
000000e0: 5233 56be bb90 d73c d9fa 91be c62f b1bd
000000f0: cff9 1fbd dd89 433e f7bb 4abe 24a1 a2be
00000100: 3638 063f 1090 673e 85ad f43e 23c9 b73e
00000110: d3ab 6d3e 9a46 b33e 1caf 563e 5a70 fabd
00000120: 3fa1 aa3e 6372 503e beb7 38be 36c7 883e
00000130: be34 313e 067f 273d cce6 c9bb fc04 6f3e
00000140: 723d 983b 59cc 783e a500 003f 8713 033e
00000150: ac70 5e3e c08a af3e 5f23 cfbd 1a1b d3bd
00000160: c9cd 3f3e f0d8 41be cb5a cd3d 9b19 fbbd
00000170: c084 1a3e 0067 aa3e f830 43be 0c01 273e
00000180: 5a03 c9bd cbf8 8f3e ae72 293e 4175 3a3e
00000190: a471 9fbc 591b 41be e5b1 2c3e 733b e73e
000001a0: f0b4 f33d f33a 7b3e c561 e53d cea1 7e3e
000001b0: f388 f33d 25f9 24be 02cf b13d cdd2 c53c
000001c0: f765 9d3e ae20 a53d e378 ae3d 1bbb 863e
000001d0: 6f29 e3bd ec82 ef3c 4ef0 503e cddd b6be
000001e0: 6037 67be 7967 6dbd cf75 0dbe ea6c 2abe
000001f0: b283 0dbe dd71 f93d c5fe d1be 3249 fabd
00000200: b0e1 2e3e 170b 5d3e b373 903e 822a 933e
00000210: f71a a03d 3cc3 d83d 4273 723e 7200 603e
00000220: 4d38 d83d 690a 453e 4873 41be 2782 843e
00000230: a951 f73e e969 9dbe 2b64 f5bc e826 a93e
00000240: 2763 943e 2bf6 423e e2ee 34bd a47c 7e3d
00000250: 246f f23d ccfe a23e 13c0 3bbd 9c58 a33d
00000260: 4d22 9b3e 6613 2fbe a497 fbbe 0e2b 89be
00000270: e257 c63d 70c0 d53e d642 aabe 9e8e ff3c
00000280: 6027 03bf b65b cf3e f265 6e3e a32b d03e
00000290: dc7b 8f3e f983 23be f502 8e3e e840 883e
000002a0: cb4b aa3d ab2e 833e 1654 483e a539 073e
000002b0: c48f 733d 07e5 08bc 6f14 8b3e 8a4f df3d
000002c0: 9eba e73e dbff 793c f03b 3bbe c1d0 cd3e
000002d0: b5f3 aabe b272 823d 0e6b 1a3e 8c92 08bd
000002e0: 997d b8be 9028 29bd 79f8 563e 822e b5be
000002f0: e9a2 85be 33a0 5b3e c769 78b9 6638 82be
00000300: 479d ae3e 9727 823e 4d8e d43d 7298 5c3e
00000310: 0feb b6bc 3e2e cf3e 6f14 3abf f8a5 9d3e
00000320: 1076 f23e dade 673e 5f5b 39be 4271 823d
00000330: 2750 6a3e 91a9 1b3e 8e49 903d 74e2 ba3d
00000340: f09e bf3e 59af 673e b9d2 413f 9e1f 3b3e
00000350: 0d02 a33d f597 9e3e b86d bfbe bb46 d33d
00000360: e50d 813d d71f 39be 5bee 8cbe 3d62 6e3e
00000370: 145e a43e 766a cb3d b58a 79bd 5966 783d
00000380: bd98 cbbd b92a a73e 8f23 403d fc6f 963e
00000390: 5122 97be c488 92be b22f 973e 452a b23e
000003a0: dbe1 9dbd f8a0 843e 19ac 6c3e a14d 0ebf
000003b0: 5e4f c33e ed85 b3be 599d 1a3d ba85 b2be
000003c0: e3b2 a73e 87b6 2c3d c29c ed3e 9569 ba3e
000003d0: ed55 33bf c9db 553e 4f6d 4a3e ff65 f7bc
000003e0: 0f10 9cbe fb94 8bbd 15a2 65be 2536 c1be
000003f0: 3539 8cbe 65cd ce3d f7fd d13d e4f0 483e
0.40079466 0.18256538 0.6002757 -0.0048428657 0.32381594 0.38019922 0.06490765 -0.095288165
0.19955662 0.21909912 -0.2877729 0.29760024 0.33827183 0.064502336 -0.14043415 0.26188374
-0.16089633 0.2558026 0.3578787 0.1762473 0.18837327 0.27883902 -0.3851891 -0.22223616
-0.14918701 -0.32982475 -0.5950467 -0.6995668 0.11633206 0.3606264 -0.23480947 0.14836423
-0.1061231 0.38578457 0.13531761 0.3856559 -0.038198963 -0.11151431 0.17448455 0.28041974
0.06398162 0.19824128 0.20009357 0.012931407 0.063897975 -0.33084834 0.0042308336 0.010081664
-0.124800004 0.078568384 0.072962925 0.29994428 -0.13137674 -0.15705706 0.19361532 -0.06298421
-0.20918015 0.02631413 -0.28511694 -0.0865169 -0.039056595 0.1909556 -0.19798265 -0.31763566
0.5242952 0.22613549 0.47788635 0.35895643 0.23210077 0.35014802 0.20965236 -0.122284606
0.33326146 0.20356135 -0.18038842 0.26714486 0.17305276 0.040892623 -0.0061615463 0.23341745
0.0046459967 0.24296702 0.50000983 0.12800418 0.21722668 0.34285545 -0.101141684 -0.103079036
0.18730845 -0.18930411 0.10027083 -0.12260743 0.15089703 0.33281708 -0.19061649 0.16308993
-0.098150924 0.281195 0.16547653 0.18208791 -0.019463368 -0.18858089 0.16864736 0.45162544
0.118997455 0.24534206 0.11200289 0.24866411 0.11891355 -0.16110666 0.08682062 0.02414837
0.30741856 0.08062874 0.08519151 0.26314625 -0.11091887 0.029237233 0.20404169 -0.35716096
-0.22579718 -0.057960007 -0.13814472 -0.1664311 -0.13819769 0.12179921 -0.41014686 -0.12220992
0.1707828 0.21586262 0.28213271 0.28743368 0.07817643 0.10584113 0.2367678 0.2187517
0.105576135 0.19242252 -0.18891633 0.25880548 0.4830449 -0.30744866 -0.02995499 0.33037496
0.28981897 0.19039218 -0.04417313 0.062130585 0.11837605 0.3183502 -0.045837473 0.07975885
0.30299607 -0.17097244 -0.4913913 -0.2679066 0.09684731 0.4174838 -0.33254117 0.031195935
-0.51231956 0.40499657 0.23281077 0.40658292 0.28024185 -0.15968312 0.2773663 0.2661202
0.083152376 0.25621542 0.19563326 0.13205583 0.059463277 -0.008355386 0.27164027 0.10903843
0.45259565 0.015258755 -0.18284583 0.4019833 -0.3338906 0.06369533 0.150799 -0.033342883
-0.36033323 -0.04129845 0.20993222 -0.35387045 -0.26100853 0.2144783 -0.00023690528 -0.25433654
0.34104368 0.2542083 0.10378704 0.21542528 -0.022328882 0.40464967 -0.7268743 0.30790687
0.473557 0.22643605 -0.18101262 0.063692585 0.22882138 0.15201403 0.070452794 0.09125224
0.37425947 0.22625484 0.7571216 0.1827378 0.079593755 0.3097531 -0.37388396 0.10316225
0.06301478 -0.18078552 -0.275256 0.23279662 0.32103026 0.09932415 -0.060923297 0.06064448
-0.09941242 0.32649782 0.04690891 0.29382312 -0.2951837 -0.2861997 0.29528576 0.34797874
-0.07709094 0.2590406 0.23112525 -0.555872 0.3814649 -0.35063115 0.037747715 -0.3486765
0.32753667 0.04216626 0.4640866 0.36408678 -0.7005299 0.20884623 0.1976826 -0.030200003
-0.30481002 -0.06815525 -0.2242511 -0.37736621 -0.27387396 0.1009777 0.10253518 0.19623142

fc3.bias f4 [4]
00000000: 825e f43e 1c16 cb3e 8d00 9a3e bbcb ac3e
0.47728354 0.39665306 0.30078545 0.33749184
