p1_navigation/checkpoint.pth (torch, 29207 bytes, 6 tensors)

fc1.weight f4 [64, 37]
000000 da a8 2c 3d 28 17 91 bd 5f 44 81 be 62 b4 00 be
       0.042153217 -0.07084495 -0.25247476 -0.1256881
000010 7a 98 ba be 82 8c 80 3d 20 83 08 bc 1d 4b d8 bc
       -0.36444455 0.062768 -0.008332044 -0.026403004
000020 c0 a7 ad bd 4e dc 52 be 90 0f 56 be fd 03 2f 3d
       -0.084792614 -0.20591852 -0.20904374 0.042728413
000030 70 c4 00 bd 88 58 09 be 8b b5 de bd c4 cc 59 be
       -0.031437337 -0.13412678 -0.1087447 -0.21269518
000040 d5 58 7d bd a4 1c de 3c 8c 70 83 3e 2d 7d 95 3b
       -0.061852295 0.027113266 0.25671804 0.0045620413
000050 7b e3 68 3c 07 13 e1 3c 04 06 ff bb 08 36 1b 3e
       0.014214392 0.027474893 -0.0077826995 0.1515733
000060 6e 4d e6 bd f0 26 93 be 84 86 13 3e 9a 8b cf bd
       -0.11245237 -0.28740644 0.14406782 -0.10134049
000070 9a 71 dc 3d a3 61 fe 3d 90 12 65 bc 4d 77 47 3d
       0.10763855 0.124209665 -0.013981476 0.04869776
000080 f5 b8 16 be d4 9e ae bd 43 bb 41 be fd ce 86 be
       -0.14718993 -0.08526388 -0.18919091 -0.26329795
000090 63 6e 55 bd 62 9c 2e 3e d3 f9 7e 3d ce 47 0c 3c
       -0.052107226 0.17051843 0.06224997 0.008562041
0000a0 ca 0e 7e 3d bc 13 87 bd 1a 18 8a bb d3 7c ae bd
       0.062025823 -0.06595561 -0.004214299 -0.08519902
0000b0 af cb 74 bd 96 5c 1b be 02 13 92 bc 42 39 06 3e
       -0.05976456 -0.15172037 -0.01783133 0.1310778
0000c0 59 36 8f 3d df e7 a3 3c a7 26 12 be 96 cc 3d 3d
       0.06992788 0.020008026 -0.14272557 0.046337686
0000d0 a0 f1 32 3e 9a 79 14 be 57 d7 50 3d 96 7c 2e bc
       0.17474985 -0.14499512 0.050986614 -0.010649821
0000e0 af 58 f3 3c 67 9c 79 bd 75 8c 27 be e8 95 ac bc
       0.029705374 -0.060940173 -0.16362174 -0.021067575
0000f0 6a a0 70 bd ec 30 d7 3b 24 a4 21 3d 9e 19 a1 3d
       -0.058746733 0.0065671112 0.039463177 0.07866214
000100 f9 32 a5 bc d8 75 9f be ac 2f cf be 7d ee 7b 3d
       -0.020165907 -0.31144595 -0.40466058 0.061506737
000110 24 50 32 3e 16 3e d4 3c d0 36 1b bd 4a a0 1b 3d
       0.17413384 0.025908511 -0.03789407 0.03799466
000120 f0 d7 17 3d 2b 3a 07 3d 2c c8 85 3e bd be b0 3d
       0.03707117 0.033014458 0.26129282 0.086301304
000130 ed 5c 34 3c ce ac 5a bc 4d b0 b9 be 7f d8 15 bf
       0.011008483 -0.013346864 -0.3626732 -0.5853347
000140 69 cb f5 3d 76 17 91 3e cb 18 f2 3d 21 c1 ea be
       0.12001688 0.28338212 0.11821135 -0.4585047
000150 e4 05 00 3d 92 c7 d5 3d 5e 84 0c 3d 3a d8 e1 3b
       0.031255618 0.10438456 0.034305923 0.0068922313
000160 83 d7 e5 bc 97 29 4f bc cc 8c 42 3d 95 86 2a 3e
       -0.028056866 -0.012644193 0.047497556 0.16652901
000170 95 89 d8 3d e2 1c 26 3e 65 ba 3e be 52 e6 95 3d
       0.10573117 0.16221955 -0.18625791 0.07319321
000180 49 2f 0b 3d 8f 48 ae bb 94 12 77 bd a6 cb 30 be
       0.03398064 -0.0053187083 -0.06032045 -0.17265186
000190 6d b5 4f 3e ef d6 71 3e df 88 b1 3d 8e ed 8d bd
       0.20284052 0.23617147 0.08668684 -0.069300756
0001a0 c3 e1 6c be 07 46 8a 3d 64 88 1c 3d 14 6a 36 be
       -0.23132996 0.06751638 0.03821601 -0.17813903
0001b0 03 5f 55 be 31 23 5a 3c 60 68 0e 3c 61 3a 00 3e
       -0.20837025 0.013314054 0.008691877 0.1252227
0001c0 e7 bc 57 3d cb c3 12 3e 3c 82 31 3d 89 6c 43 bf
       0.052670386 0.14332502 0.04333709 -0.76337487
0001d0 26 71 f2 bc af 60 5d bd de 49 66 3d 82 1d 71 3e
       -0.029594969 -0.054047283 0.05622279 0.23546413
0001e0 7a 12 8e bd cf ca 2d 3d a3 ed 86 bd 64 72 d7 3a
       -0.06937118 0.04242974 -0.06588294 0.0016437289
0001f0 04 0b 34 be 3e 65 5e bd 13 e5 06 bd 05 29 55 3d
       -0.17582327 -0.05429577 -0.032933306 0.052041072
000200 9a cf 1f be 18 f3 7a bd ce cf 12 be dc 5b bb 3d
       -0.15606537 -0.06126699 -0.14337084 0.0914838
000210 69 f4 c0 be 86 9d 81 bc 94 d0 4e 3d 45 80 b4 bd
       -0.3768647 -0.015822183 0.050491884 -0.08813528
000220 14 8d d3 bd 47 17 3f be 83 f4 0b 3e ab 31 28 3e
       -0.10329643 -0.18661223 0.13667493 0.16425197
000230 67 94 75 3e 42 4e 23 3e 4b c8 17 be a2 24 cd be
       0.23982392 0.15947822 -0.148225 -0.4006701
000240 26 d1 3b be 93 79 85 bf 81 72 5c 3d cb e7 ea 3b
       -0.18341503 -1.0427727 0.053820137 0.007168745
000250 1f 40 fb bd ec 0f 08 be 2c 28 b9 bc 49 b4 f8 bd
       -0.122680895 -0.13287324 -0.022602163 -0.12143762
000260 5a ff 74 bd 9a 02 af 3e 62 9b 8f be 93 c6 12 bf
       -0.059813835 0.34181672 -0.28048235 -0.5733425
000270 56 51 b4 be e3 98 d7 bf 4b 4d 5d bd 0e 37 20 3c
       -0.35218304 -1.6843532 -0.05402879 0.009778751
000280 0e 2f cd bd bf 92 1e 3c 88 fb 3c be b0 a6 b4 bd
       -0.100187406 0.009678542 -0.18455327 -0.088208556
000290 a2 ea d4 3c bd b6 88 3c 24 8d 8d bd 7f 52 28 3d
       0.025990788 0.016688699 -0.06911686 0.0410943
0002a0 8e 20 ec bd 79 35 22 3d 98 6d 0e 3d 37 13 d6 3d
       -0.11529647 0.039601777 0.034772485 0.10452884
0002b0 5d 6c 47 3e ac ea fa 3b 3b 75 32 3d 87 b6 95 3d
       0.19474931 0.0076573696 0.04356883 0.07310205
0002c0 45 da 24 3e cf 22 48 3e e8 48 17 3e 00 45 45 3d
       0.16098888 0.19544528 0.14773905 0.048161507
0002d0 a2 b6 5e 3d 75 eb 71 3a a4 16 21 be 9b c3 ba 3c
       0.05437339 0.0009228506 -0.15731293 0.02279835
0002e0 4e 07 dd 3a 01 7f 9c bc da 83 6c 3c 75 b8 ef 3c
       0.0016863139 -0.019103529 0.014435733 0.02926276
0002f0 25 40 9d 3d 97 50 12 bd 1f 7e 9a 3e f7 1d 3c 3e
       0.0767825 -0.035721388 0.30174348 0.18370806
000300 60 31 0a bf 26 85 02 be 7a 63 96 bf 53 f6 57 b9
       -0.5398159 -0.12746105 -1.1749108 -0.0002059576
000310 0e e4 18 bd 7b eb a6 3c c8 b2 a0 bd 7f 54 6d 3c
       -0.037326865 0.020375958 -0.078466 0.0144854775
000320 03 31 98 3d a3 ad 77 3c c6 6c 6c bd a4 50 b6 3c
       0.07431223 0.015117082 -0.057720922 0.02225525
000330 0b 84 ea bd d2 1f 5d 3d 0d 1b 96 3d 70 a0 44 3e
       -0.114509664 0.053985424 0.07329378 0.19201827
000340 f9 6c 34 3e 07 19 38 3e 0f 5f 5f bb 7f b1 be 3c
       0.17619695 0.17978297 -0.003408376 0.023277996
000350 ba 4c c6 3c 80 b4 08 3e c3 8f 71 3d 90 09 12 3e
       0.024206508 0.13350105 0.058974992 0.1426146
000360 c8 33 da bd ba b8 8c bd 6f 42 72 bb a8 2f f9 bd
       -0.10654408 -0.06871171 -0.0036965867 -0.12167293
000370 fd 24 13 bd aa 9e a7 3c 76 9b 02 3e 0a 07 12 be
       -0.035923947 0.0204614 0.12754616 -0.14260498
000380 9c 7b 0a be de 78 5f bd 2b 48 76 3e 70 f9 37 bc
       -0.13523716 -0.054558627 0.24050967 -0.011228904
000390 74 b0 6b be 39 9b af bd 8c f8 de 3d b3 38 94 3e
       -0.2301653 -0.08574528 0.1088725 0.28949508
0003a0 8e 34 f4 3d ca e3 1b 3e 9f a1 e6 bc 0c 8f 64 be
       0.119240865 0.15223613 -0.028153239 -0.22320193
0003b0 71 ba 05 bf d0 4e 5a bd 53 18 54 be 98 ef e3 3b
       -0.5223761 -0.053297818 -0.20712404 0.006956052
0003c0 7e e6 a2 bb 44 42 37 3e 5c 6f e5 bd 73 34 e3 bd
       -0.0049713245 0.17896372 -0.11202881 -0.11093988
0003d0 3b 9d cf 3d db 90 3d be b0 20 c8 3d 9e 0c 33 bd
       0.10137411 -0.18512289 0.0977186 -0.043713205
0003e0 7d 49 fd be f7 52 8e 3d 87 c0 e5 bd ae 85 ed 3c
       -0.4947013 0.06949418 -0.11218362 0.028994408
0003f0 53 fa 79 3d d1 4c be 3c 1c 8d b4 bd 1d a3 94 bd
       0.061029743 0.023229988 -0.08815977 -0.07257674

fc1.bias f4 [64]
000000 d7 c3 6c 3d b1 8e cc bc e3 3e a5 bd 9b 9f 46 bd
       0.057803955 -0.024970384 -0.08068635 -0.048492055
000010 02 de 6b 3e 5e 3d 47 ba 93 c7 ce bd d5 97 c9 3d
       0.23033908 -0.0007600392 -0.100966595 0.09843413
000020 fc 26 18 3d 02 1d 8f be 6b 8d dc 3d c2 8a 43 3e
       0.037146553 -0.2795182 0.10769161 0.190959
000030 c1 6b 16 3e c8 1e 94 3d 1b 52 14 bd 9a 8e 34 bd
       0.14689542 0.072324336 -0.036211114 -0.044081308
000040 71 e3 a5 3c 21 4f aa bd d7 6b 4a 3c 07 ab 67 be
       0.020250054 -0.08315874 0.012354813 -0.22623836
000050 d0 6a 68 bd 27 92 50 3d 8b f1 e2 3c f8 8c af bd
       -0.05674249 0.05092063 0.027703067 -0.085718095
000060 35 cc 01 be 3c 15 68 3e 5c d7 e0 bc ba e6 29 be
       -0.12675555 0.2266435 -0.027446441 -0.16591921
000070 ec ab 0c 3e 1d 7d fd 3d 20 0a b9 3c 0e 25 cc bd
       0.13737458 0.12377379 0.022587836 -0.09968005
000080 1a 2b 2a 3e 32 5b 24 3d 73 ef 21 be cc 84 15 3d
       0.16618004 0.040126033 -0.15813999 0.036503598
000090 df 66 bb bd 82 1f 48 3c bf 35 20 bd 29 1c 0d be
       -0.091504805 0.012214543 -0.039113756 -0.13780273
0000a0 32 0a c8 bd e1 e1 26 3d 46 8c 9e bd 45 c3 24 3e
       -0.097675696 0.04074276 -0.07741599 0.16090114
0000b0 36 45 25 3c 1d 94 90 bd 83 14 ae 3c 76 f5 43 be
       0.010087302 -0.070595 0.021250015 -0.19136605
0000c0 9a 6f ef bd d8 15 be 3d b4 2a 63 be 70 eb 9a 3d
       -0.11691208 0.0928151 -0.22184259 0.075644374
0000d0 d0 93 5e bd 9e 4b d9 bd 49 05 31 be 5e e6 4a 3c
       -0.054340184 -0.10610126 -0.17287172 0.012384025
0000e0 fc 99 f5 3d f7 6a 74 bc e1 78 9b bd 3e 06 ee bd
       0.11992261 -0.0149180805 -0.07591415 -0.11622284
0000f0 de 96 45 bd 13 da e4 3c 84 81 74 3c a9 7d 6f 3b
       -0.04823958 0.027936017 0.014923457 0.0036543405

fc2.weight f4 [64, 64]
000000 0c d5 8a bb 62 cf 07 3e 68 94 b3 bc df ef 80 bd
       -0.004236823 0.13262704 -0.021921352 -0.06295752
000010 2b 31 12 be e3 b2 29 be b7 8c 64 be 85 2f f9 be
       -0.14276569 -0.16572146 -0.22319303 -0.48669067
000020 d9 ce a3 3d 5f c6 3f 3c 8f 23 3f bd b7 5e 4a 3e
       0.079984374 0.01170501 -0.04666477 0.19762693
000030 7e ea a5 be b5 61 9f 3e a3 7f 85 bc 6e cd 49 be
       -0.32405466 0.31129232 -0.016296213 -0.19707271
000040 9b 87 46 be b1 33 2b be 27 1b db 3b 75 40 bd 3d
       -0.19387667 -0.16718937 0.0066865864 0.0924081
000050 f3 30 8d be af ff 16 bd 44 b6 13 3d 63 37 3b be
       -0.27576408 -0.036864933 0.036062494 -0.18282847
000060 bc 5b d8 ba 3f c3 8f bc 72 bf 80 be 2e 23 a3 3c
       -0.0016506831 -0.017549155 -0.2514606 0.019914236
000070 68 ec 93 be 47 06 97 bd f6 98 50 3e c0 1f 21 3e
       -0.288913 -0.07374244 0.2037085 0.15734768
000080 1f 16 c3 3d ae 57 8a be 6b aa 8d bd 59 7e 70 3d
       0.09525704 -0.2702002 -0.0691727 0.058714245
000090 99 26 3e be 06 6b 93 be 6f 24 a4 bd 6b d8 04 be
       -0.18569411 -0.2879259 -0.08014762 -0.12973182
0000a0 5d 05 3b be fa 7a a1 be 5e 87 b0 be 4f c0 9e 3c
       -0.18263765 -0.31539136 -0.34478277 0.01937881
0000b0 21 88 f3 bd bf 0d 50 be bb e6 6a bd e2 86 03 3e
       -0.11891199 -0.20317744 -0.057348948 0.12844422
0000c0 1f 91 b0 bd 92 ce 28 be 21 46 df 3d 7b 56 6a be
       -0.0862143 -0.1648505 0.10902048 -0.22884552
0000d0 83 77 28 3d 61 d9 f7 3d 09 75 70 bd c0 14 08 3e
       0.0411296 0.121020086 -0.058705363 0.13289165
0000e0 17 82 06 3e 03 6a 40 be 9f 98 85 be 55 29 b8 bd
       0.13135563 -0.1879044 -0.26093003 -0.089922585
0000f0 80 d1 16 3e 74 3a 1b 3f e1 92 75 be 33 3c de 3c
       0.14728355 0.6063607 -0.23981811 0.027128315
000100 fe c5 4f bc 67 4a 9a 3d da 2e 30 be 68 8d 8e 3e
       -0.012681482 0.07533722 -0.17205372 0.2784226
000110 f5 6e 5a 3e 47 43 d3 3d 28 8e 79 be 70 eb 82 ba
       0.21331389 0.103155665 -0.24370635 -0.0009988379
000120 d3 82 2e bd f5 a7 53 bd 59 a0 62 be b1 d6 0a 3e
       -0.042605232 -0.05167385 -0.2213148 0.13558461
000130 b7 b9 43 3d 6e 63 74 bd 04 79 ea bc 46 57 4b 3e
       0.047784533 -0.059665136 -0.028622158 0.19857511
000140 f0 0f 26 3e 7a 35 ff 3d 01 a5 84 be 34 65 a9 bd
       0.16217017 0.12461372 -0.25907138 -0.08271256
000150 81 fc 17 3e c0 25 3d 3e 8d df 15 bd 49 e6 08 bd
       0.14842416 0.18471432 -0.036590148 -0.033422742
000160 f4 5e b5 3d f8 d2 35 3d bc ae 0d 3e 56 0c 82 be
       0.088560015 0.04439065 0.13836187 -0.25400037
000170 b1 44 26 3e 4d dc a2 3c 13 75 d0 be 93 e1 f2 bd
       0.16237141 0.019880438 -0.4071432 -0.11859431
000180 f9 45 20 be 80 54 27 b8 89 90 ff 3c 4c dc e4 bd
       -0.15651692 -3.98946e-05 0.03119685 -0.11174831
000190 a7 57 7d be 78 13 c2 3e 22 70 27 3e 64 98 23 be
       -0.24740468 0.37905478 0.16351369 -0.15976101
0001a0 5b 98 4c bd ae e4 48 3e b2 f4 18 be 87 86 98 bd
       -0.049949985 0.19618484 -0.14937094 -0.07447534
0001b0 8e 3c 98 bc 9a a9 03 be f5 f4 c8 bd 7b 37 bb bc
       -0.018583562 -0.12857667 -0.09812347 -0.022853604
0001c0 29 e4 a6 bd 9a 7c 0c be 73 3b 93 3d 70 2f 7a 3e
       -0.08148987 -0.13719407 0.071890734 0.24432158
0001d0 80 a7 81 bc 80 2c fd 3c 9d 93 46 3d cd 18 08 3e
       -0.01582694 0.030905008 0.04848062 0.13290711
0001e0 46 67 2b be 4c c3 b5 bb 40 53 80 3e e8 8a 5b 3e
       -0.16738614 -0.005546963 0.25063515 0.21439707
0001f0 aa f6 15 be bb 19 bf bc fe c9 1a be 2a 1d a0 bd
       -0.14644876 -0.023327699 -0.15116116 -0.078180626
000200 8d 15 79 bd 1b a1 b2 bd 1a 67 45 3a 8b 9d bf bc
       -0.060811568 -0.08722135 0.0007530317 -0.023390552
000210 6c df a1 be 4e 42 1d be aa 94 b7 bd 66 4a 96 3d
       -0.3161577 -0.15357324 -0.08963902 0.07338409
000220 2f f1 4a 3e d3 d0 df bb e2 77 36 3f 8e f7 90 be
       0.19818567 -0.0068303137 0.71276677 -0.2831387
000230 cd dc 71 3c df 91 83 3d 45 82 de 3d 23 a7 00 be
       0.014762116 0.06424307 0.10864691 -0.12563758
000240 e9 95 4b be 94 0d 5d bc c5 50 0a 3d 33 d9 85 3d
       -0.19881405 -0.013492007 0.033768434 0.06535568
000250 fe 5c 5e be 73 73 9e bd 4c 62 47 be 8e aa 78 bd
       -0.21715161 -0.07736864 -0.19471091 -0.06070953
000260 9a 8d b2 be 98 29 8a bd ae 1c d6 3d 69 d3 c7 bc
       -0.34873658 -0.06746215 0.10454689 -0.0243928
000270 c0 96 a3 bd 86 46 f0 3d f5 c0 92 3e cc 75 ea bd
       -0.07987738 0.11732201 0.2866284 -0.11448249
000280 89 fc 50 3d 4d 6e 41 be 57 75 e2 bc f0 05 92 3d
       0.051022086 -0.18889733 -0.027643843 0.07130039
000290 58 38 13 be 8e 04 d6 be 03 2b 40 be 25 76 45 be
       -0.14376962 -0.4180035 -0.18766408 -0.1928335
0002a0 77 86 98 3d e1 5b 92 be 44 38 ee 3d 79 fd 85 be
       0.07447522 -0.28585723 0.116318256 -0.26169947
0002b0 27 a5 32 bd 06 8d 53 be 4d e3 e1 bb 80 4b 55 3d
       -0.043614533 -0.20659265 -0.0068935514 0.052073956
0002c0 ef 31 8a 3e c8 3c 01 be 78 47 1b be 78 f3 3d bc
       0.2699122 -0.12620842 -0.15163982 -0.011593692
0002d0 2e bb 7c be fa 3d e2 3e 52 0a 07 be 0a f3 4b be
       -0.24680778 0.4418791 -0.1318753 -0.19916931
0002e0 56 f5 5c be ae 62 1c be f3 7f 5a be 1f c1 be bc
       -0.21577963 -0.15272018 -0.21337871 -0.023285447
0002f0 cf ce 80 bb f4 3f 01 bf 2c b3 7d 3d 1d db 8b 3b
       -0.0039309035 -0.5048821 0.06193845 0.0042680637
000300 15 7b 00 be 4b 73 1e bd a2 35 15 3d e0 69 8c bd
       -0.12546952 -0.03868417 0.0364281 -0.068561316
000310 70 95 1e ba 5f e5 2e be f9 f8 5a 3e 69 18 64 3d
       -0.00060494896 -0.17079686 0.21384038 0.05568734
000320 fc 44 23 be 43 be 55 3d 76 31 f9 bd 30 b6 3b bc
       -0.15944284 0.0521834 -0.12167637 -0.011457011
000330 cb d7 20 be 8b 9d a1 3d a6 ad 80 bd 91 e8 c9 3d
       -0.15707318 0.07891377 -0.06283121 0.09858812
000340 f3 ed 3d 3d 86 98 3a be 19 b3 f7 bd 2b 64 aa bd
       0.046369504 -0.18222246 -0.12094707 -0.08319887
000350 6a ea 65 3e c0 14 2d 3e b0 91 9d bd 77 5b 40 be
       0.22452703 0.16902447 -0.07693803 -0.18784891
000360 ce 3c 13 bd a9 bc 9a 3d 7d ea a7 3e bd c8 95 bd
       -0.03594666 0.07555515 0.32796088 -0.073136784
000370 fd dd 7e bd 2a 9e 18 be 0c bc 30 3d 01 d2 bf bd
       -0.062223423 -0.14904085 0.043148085 -0.09366227
000380 a4 e2 ff bd 0a a2 da be 71 da 34 bd a9 16 31 3d
       -0.124944 -0.4270175 -0.044153634 0.0432345
000390 15 e3 38 be 95 f0 f6 3e c9 c2 43 3e d6 00 2b 3d
       -0.18055375 0.48230425 0.19117273 0.041748844
0003a0 3d 8a d5 3d d6 42 ad bc f2 b0 3a 3d b4 47 96 bd
       0.104267575 -0.021150034 0.045578904 -0.07337895
0003b0 1a 04 06 be 95 38 5b 3d f6 21 4c 3e 10 ec 2e 3e
       -0.13087502 0.053520758 0.1993483 0.17082238
0003c0 7d 30 4d be 2d 3c 86 be ce 97 c2 bd 21 ed 81 bd
       -0.20038028 -0.26217785 -0.09501611 -0.06344057
0003d0 af 9b 16 3e ec ee 09 3e 3a a1 3a be 06 44 42 3d
       0.14707826 0.13470048 -0.18225566 0.047428153
0003e0 31 65 d3 be 10 53 4a 3d df 36 29 be 7a 7a 37 3e
       -0.4128814 0.04939562 -0.16524838 0.17917815
0003f0 5b 24 70 be 46 07 59 be 0e 03 ab bc a6 8e 11 be
       -0.23451369 -0.21194181 -0.02087548 -0.14214572

fc2.bias f4 [64]
000000 47 e9 97 bd 55 6d c3 3d 8d af 90 3d 2a 44 f0 3c
       -0.07417541 0.09542338 0.07064734 0.029329378
000010 18 de 6c 3e f6 54 70 bd 0c 4c 05 bd 89 3b e0 3c
       0.23131597 -0.058674775 -0.032543227 0.027372139
000020 00 bc a6 3d 8f 71 ef 3e 58 91 2a be 21 01 71 3e
       0.08141327 0.46766326 -0.16657007 0.23535587
000030 d1 c8 75 3d 35 ee 6a 3b 2f 22 b4 bd 66 4a ff 3d
       0.060005967 0.003584755 -0.087955825 0.12465362
000040 08 eb 2b bc 96 e9 d1 3d 6c 0d ca bc 7a a0 87 3e
       -0.010493048 0.10249631 -0.024664603 0.2648962
000050 ed 53 a7 3e b6 36 01 3f 59 0a e9 bd af f6 e2 bd
       0.32681218 0.5047411 -0.11378927 -0.110822074
000060 41 a5 64 bd 52 8f 16 be 75 29 5f 3d 70 77 cd bd
       -0.05582166 -0.1470311 0.054482896 -0.100325465
000070 c4 d5 c6 3b 53 95 8a 3d f9 1b 5a 3c 5a e1 51 3d
       0.0060679633 0.067667626 0.013312333 0.051240303
000080 eb af ff bd af 0c 9f 3e 3b 9f 14 3e e4 88 c4 3c
       -0.124847256 0.31064364 0.14513867 0.023991056
000090 ad c9 31 be 56 98 87 be 1a 59 3a 3e 3b cb 35 3d
       -0.1736209 -0.2648341 0.18198052 0.04438327
0000a0 18 52 1c be ab 26 08 3f 28 97 cc 3e 08 7f 87 3b
       -0.15265691 0.53184 0.39959073 0.0041350164
0000b0 ce be a7 3d c7 63 4a bd 05 dd 00 bd 2c e9 55 bd
       0.0819069 -0.04941156 -0.03146078 -0.052224323
0000c0 08 c8 31 3c 15 9b 3e 3d 9c 73 c4 bd c3 d2 c4 3e
       0.010850914 0.046534617 -0.09592363 0.38442048
0000d0 0e c9 af bd 13 44 4b be f4 c1 c7 3e 37 e1 37 be
       -0.0858327 -0.19850187 0.39015162 -0.17957006
0000e0 5e d2 7e be c2 a0 10 be f6 12 8c bd 73 12 0f be
       -0.24884936 -0.14123824 -0.06839554 -0.13971882
0000f0 dc 44 dd bb c8 4a 97 3e 03 e5 e6 3d 1d 74 29 be
       -0.0067525934 0.2954924 0.11274149 -0.165482

fc3.weight f4 [4, 64]
000000 cb 8c c7 3e 2b 9f 33 3e f5 8b db 3e 96 1a 22 3e
       0.38974604 0.17541187 0.42880216 0.15830454
000010 89 7f af 3e c1 ea b7 3e b5 dc 8f 3d 3a 8f 1c be
       0.3427699 0.3592129 0.070245184 -0.15289012
000020 69 33 bf 3e 98 67 25 3e 4f 28 81 be 25 0d a1 3e
       0.3734391 0.16152799 -0.25226066 0.3145534
000030 b8 a8 b8 3e 7e b6 0c 3d 51 96 9a 3e 0a f3 b7 3d
       0.36066222 0.034353726 0.30192807 0.08981903
000040 71 46 15 be c8 66 89 3e b6 db 18 3e ef 18 16 3e
       -0.14577653 0.26836228 0.14927563 0.14657949
000050 04 f3 1c 3e 2e c1 4b 3e a3 26 0e be f2 b0 65 be
       0.15327078 0.19897911 -0.13881926 -0.2243078
000060 6c 2a 79 be 32 c7 16 be d0 3a 16 bf 20 c8 8e be
       -0.24332589 -0.14724424 -0.5868349 -0.27887058
000070 76 3d ec 3d 5c 9b 78 3e 5f b6 37 be 48 c4 da 3d
       0.1153516 0.24278015 -0.17940663 0.10681969
000080 31 be c8 3c 80 13 9b 3e 34 24 02 3e ae ba c9 3e
       0.024504753 0.30288315 0.12709123 0.39400238
000090 f6 20 aa 3d 39 73 0a be 29 c1 2c 3e ca 16 a4 3e
       0.08307068 -0.13520516 0.1687056 0.32048637
0000a0 cc 08 83 3d f8 8f 07 3e b0 5f 08 3e 8a 68 24 3e
       0.06398162 0.13238513 0.13317752 0.16055503
0000b0 54 2c a3 3d 68 39 32 bd 9e 8b 35 3e b5 04 85 3e
       0.07967439 -0.043511778 0.17729041 0.25980154
0000c0 2c f5 ff bc cd da de 3d db a1 a2 bc d8 06 58 3e
       -0.031244837 0.10881577 -0.01985257 0.2109636
0000d0 01 a2 ef bd f5 e2 c6 bd 3a 9f 09 3e ce 22 8f bd
       -0.11700822 -0.09711257 0.13439646 -0.0698906
0000e0 dc b6 2d be 55 21 79 bc 04 2e 36 be d8 e5 92 3b
       -0.16964287 -0.015205701 -0.17790991 0.004482966
0000f0 ae 7f 80 bd 8c 98 19 3e 13 9a a2 3d ec b1 2d be
       -0.06274353 0.14999598 0.079395436 -0.16962403
000100 3b 1e ce 3e 22 82 37 3e cb a7 cb 3e de 42 68 3e
       0.4025744 0.17920735 0.39776453 0.22681758
000110 eb 5d 9f 3e b3 d4 9f 3e 4c cd d2 3d c7 1d 0d 3e
       0.3112634 0.31216964 0.102930635 0.1378089
000120 14 76 94 3e 7e ff 08 3e 86 62 66 be 60 7b 52 3e
       0.28996336 0.13378713 -0.22498521 0.20554876
000130 78 b7 92 3e a2 6f 4d bc 47 2b 06 3f cf 29 19 3e
       0.286556 -0.012538822 0.52409786 0.14957355
000140 56 1f e1 bd c2 3b 5e 3e 44 53 9d 3e 0a 37 f5 3d
       -0.10992305 0.21702483 0.3072759 0.119733885
000150 e4 fc 26 3e 4b bf 74 3e b6 ee 1f be ef 48 f1 bc
       0.16307408 0.23901097 -0.15618405 -0.029453723
000160 40 97 62 3d 75 09 52 be 4a bb 47 3e 12 2e 95 be
       0.055320024 -0.2051142 0.19505039 -0.2913671
000170 5a 7e 5c 3e 91 23 a9 3e a3 4e c4 bd 7f af 4c 3d
       0.21532574 0.33034948 -0.09585311 0.049972054
000180 2e 6f c4 bd d3 05 6e 3e 65 9e 2c 3e 6d 6b 34 3e
       -0.09591518 0.2324441 0.16857298 0.17619105
000190 00 a1 82 bd 98 79 04 be f2 96 45 3e 02 3b cb 3e
       -0.063783646 -0.1293701 0.19295862 0.39693457
0001a0 f0 b4 f3 3d b2 03 54 3e 72 2b 8d 3d fd 6a ab 3e
       0.118997455 0.20704535 0.06893052 0.33480063
0001b0 81 a9 41 3e f4 43 19 3c 85 5b 2b 3e 4b ad 52 3e
       0.18912317 0.00935458 0.1673413 0.20573919
0001c0 70 e6 60 3e 8d 83 c4 3c 1d 87 e0 3d bb 19 3f 3e
       0.21962905 0.02398851 0.10963271 0.18662159
0001d0 b9 74 5b be 28 34 87 bc 06 43 e8 3d 0b 33 90 be
       -0.21431245 -0.016504362 0.11340909 -0.28163943
0001e0 8c 67 1a be 3a 1d b0 bc e0 c6 7d 3d 94 6f 9f bd
       -0.15078562 -0.021498311 0.06195724 -0.07784954
0001f0 89 2c 67 be e9 a9 a4 3d c9 b2 05 bf 5c a8 42 be
       -0.22575583 0.0804022 -0.5222593 -0.19009537
000200 7e 46 0c 3e 89 ea 2a 3e 39 a6 00 3f 2a ba 85 3e
       0.13698766 0.1669103 0.50253636 0.26118594
000210 eb 6a 3d 3d 46 25 3b 3e f5 71 fc 3e 59 93 03 3d
       0.046244543 0.18275937 0.49305692 0.032122944
000220 01 24 24 3e f7 13 09 3e 44 fa 66 be c6 31 41 3e
       0.1602936 0.13386522 -0.22556406 0.18866643
000230 ba ab 8a 3e 6d fb 90 bd f5 b4 28 be 62 6b 96 3e
       0.27084142 -0.07079206 -0.1647528 0.29378802
000240 33 0d ac 3e 9c 65 ea 3d 9d 90 c2 3c 6a 45 33 3d
       0.3360382 0.11445162 0.023750598 0.04376737
000250 35 81 9e 3d 0f 12 7b 3e ad 83 3b be 78 f4 1c 3e
       0.07739488 0.24518608 -0.18311949 0.15327632
000260 a7 8f 65 3d 2e 06 18 be df 1c 8d be 3a 09 51 be
       0.0560452 -0.14846107 -0.2756109 -0.20413676
000270 bd c3 a1 3e fa 0c c3 3e ba d5 19 be c2 4f ae bd
       0.3159465 0.38095838 -0.15022936 -0.08511306
000280 e7 8b ad be 3f 60 bb 3e 32 f2 46 3e e1 cf 09 3f
       -0.338958 0.36596867 0.19428328 0.53832823
000290 0c 9c a7 3d 01 ed 0b be 3a eb 98 3e d5 b5 71 3e
       0.081840605 -0.13664629 0.29866964 0.2360452
0002a0 cb 4b aa 3d e0 2e 58 3e 7f e4 33 3e 97 7a 1f 3e
       0.083152376 0.21111631 0.17567633 0.15574108
0002b0 8f 41 0c 3e e4 fc cf bd a1 cc db 3e 6e ce 86 3e
       0.13696884 -0.10155657 0.42929557 0.26329368
0002c0 66 95 10 3f c3 9a 8c ba 5c 31 02 3e dc be 9c 3e
       0.56477964 -0.0010727275 0.12714142 0.30614364
0002d0 57 63 3f bd a0 93 01 be 1f c3 f2 3d 84 fd 52 bd
       -0.046725597 -0.1265397 0.11853623 -0.051511303
0002e0 fc 8d 53 be 84 09 47 bc 59 38 0f 3e 5d 1c 06 be
       -0.20659631 -0.012148265 0.13986339 -0.13096757
0002f0 71 9d 5e be d4 08 18 3e ad c0 99 be c1 6d b5 be
       -0.21739747 0.14847118 -0.30029812 -0.35435298
000300 17 b8 e6 3e 2f 94 81 3e fc c6 cd 3d 87 84 cf 3e
       0.45062324 0.25308368 0.10047719 0.40530798
000310 57 26 b8 bd bb ec 9b 3e 30 ef e2 be 98 e2 f2 3d
       -0.08991688 0.3045405 -0.4432311 0.118596256
000320 fe a8 f4 3e b7 fb 40 3e 97 00 43 be 22 08 32 3d
       0.4778518 0.18846022 -0.19043194 0.043464787
000330 1e be 4f 3e 03 3a 67 3e 20 ef 28 3f 65 c1 cc 3c
       0.20287368 0.22580723 0.65989876 0.024994561
000340 43 fc 59 3e 5e 9a 60 3e 9d 04 e1 3e 2c e3 2d 3e
       0.21287636 0.21933886 0.43948832 0.1698119
000350 42 31 0e 3d e5 39 83 3e f5 0f b9 be 1f 35 a8 3d
       0.034714945 0.25630108 -0.36144987 0.08213257
000360 3a ea 89 bd 9c 4d 5c be 31 7d 26 3d 63 12 31 3e
       -0.06734128 -0.2151398 0.040646736 0.1729217
000370 d0 36 d6 3e 91 90 06 3d cf 0d 7a 3e a1 02 f4 3d
       0.41838694 0.032852713 0.2441933 0.11914564
000380 b2 42 10 be 01 3b 54 3e c2 d0 7a 3d b8 04 5e 3e
       -0.14087942 0.20725633 0.061234243 0.21681488
000390 38 94 81 be 22 d8 8c be ae e4 13 3e 60 7f 90 3e
       -0.25308394 -0.27508646 0.14442703 0.2822218
0003a0 db e1 9d bd 42 32 5a 3e 54 63 23 3e 9f ac f6 be
       -0.07709094 0.21308234 0.1595586 -0.48178574
0003b0 7d e7 a7 3e 8e 9e 5d be 14 47 89 3e ee 17 24 bd
       0.327938 -0.21642515 0.2681204 -0.040061884
0003c0 df 6f 63 3e f0 48 0b 3d 3a 74 b5 3e 4f 7e 72 3e
       0.22210644 0.034005105 0.35440236 0.23680995
0003d0 c3 12 b9 be d5 28 5f bd d7 58 2d 3e 97 a6 d0 3c
       -0.36147127 -0.0544823 0.16928421 0.025470061
0003e0 3e b3 1f be 08 10 b2 bd 31 31 b6 be 14 68 6c be
       -0.15595719 -0.08694464 -0.35584405 -0.23086578
0003f0 e9 03 3a be 0f 9e af 3d 7b 6f 68 be 5a 22 20 bd
       -0.18165554 0.08575069 -0.22698776 -0.03909526

fc3.bias f4 [4]
000000 2e 64 9f 3e a0 d6 93 3e 69 28 3b 3e bb 3c 5f 3e
       0.3113112 0.28874683 0.18277134 0.2180051
