p3_collab-compet/checkpoint_actor_1_maddpg.pth (torch, 25367 bytes, 6 tensors)

fc1.weight f4 [64, 24]
0.004907646 0.3499637 -0.013313466 -0.37720886 0.22407976 -0.24132663 -0.029954437 -0.27564952
-0.0028632302 0.15050538 0.09084962 -0.31688341 0.1556773 -0.4794294 -0.05288348 -0.3166043
-0.084823795 -0.009577225 -0.017535131 -0.003403837 0.021690799 -0.34467435 0.0119862305 -0.23139963
-0.04154002 -0.15865776 -0.0029152136 0.12233307 -0.09620141 0.106759354 -0.0070833606 0.05914662
-0.07536526 -0.37642276 -0.026762366 -0.049777735 0.091034845 0.07515668 0.022670928 0.06923553
0.0651534 -0.4205497 -0.13615982 -0.09010661 0.30313775 -0.16804679 -0.015846182 0.030277116
0.15961045 0.23861817 0.09106982 0.002248537 -0.3062486 -0.13785315 -0.031425677 0.02640189
-0.010566732 0.1990188 0.06458756 -0.021296052 -0.3554397 -0.12685435 0.0068382416 0.071206816
0.2669521 0.16856214 0.029293166 0.02157951 -0.25041905 -0.17416541 -0.071519695 0.06967948
-0.009131642 -0.040650677 -0.021747027 -0.20546952 0.39102724 -0.052481737 -0.07070101 -0.23513636
-0.030622652 -0.04192022 0.019371092 0.07377495 0.44542158 -0.2368445 -0.03737992 0.12936148
0.0013080424 -0.13907567 0.057668347 0.11242936 0.61396533 -0.0007267641 -0.01991524 0.14942414
0.23929034 0.046658505 0.07661418 -0.119745456 -0.15395157 -0.27414644 0.10504937 0.054763265
0.14899983 -0.09684938 -0.08973807 0.010678884 -0.08042383 -0.3393173 -0.08924478 -0.09129207
-0.009019739 -0.10659307 0.18008043 0.05812789 -0.07656148 -0.39575347 0.1741396 0.064900175
-0.1013022 -0.062367525 -0.041839767 -0.045337226 -0.10693749 -0.12624292 0.042183045 -0.043982994
-0.092771366 -0.022887439 0.04433304 0.13832135 0.1363053 0.11112769 -0.041309237 0.13062741
-0.102668464 -0.12746568 0.032153692 0.3300771 0.25055557 0.46894053 -0.032346968 0.3874876
-0.24343064 -0.23977593 0.004617211 0.22362839 0.41230154 -0.26262233 -0.023326851 0.14511202
-0.11869094 0.007149717 -0.0056511275 -0.08993265 0.16971374 -0.044696894 -0.043527693 -0.067625865
-0.024476927 0.050395124 -0.036436103 -0.30307254 0.05189669 0.14372243 -0.033519737 -0.295011
0.25009066 0.045955382 0.05263707 0.004441513 0.4417591 0.08502367 -0.034954403 -0.068429485
0.1949715 -0.11500967 -0.026347922 -0.19325781 0.289388 0.32371897 0.015005602 -0.10149253
0.20806472 -0.08619683 0.056490857 0.07424373 0.24164589 -0.2489043 0.000581389 -0.024439987
0.25178468 -0.16636007 0.0351345 -0.15948702 -0.16451158 0.09484121 -0.080422424 -0.19856836
0.18695028 -0.27854216 -0.041333128 -0.24596684 -0.04655329 0.4355726 0.08901217 -0.221519
-0.05125137 -0.2575945 0.06727231 -0.12426166 0.15362386 0.028692802 -0.023463355 -0.031545017
-0.021001974 -0.2693524 -0.10117501 -0.18215533 -0.017547471 0.062923476 -0.018196648 -0.09083011
0.027012955 -0.31851563 -0.10336241 -0.019855944 -0.10588568 0.118772864 -0.10511206 -0.093793586
-0.05108838 -0.31231198 -0.11795036 -0.20411345 -0.14936002 0.5810979 0.0063068466 -0.20013505
-0.043572888 0.024390982 0.026660748 -0.023797177 -0.34667188 -0.11322386 0.015839025 -0.008225024
-0.06045849 -0.056391433 0.043400303 -0.090985626 -0.030153615 0.13242982 0.010219001 0.1401807
00000000: 52d0 a03b 712e b33e b920 5abc 8521 c1be
00000010: 2a75 653e 541e 77be 0263 f5bc ef21 8dbe
00000020: 08a5 3bbb 151e 1a3e 5e0f ba3d 8b3e a2be
00000030: df69 1f3e c577 f5be 599c 58bd f519 a2be
00000040: 19b8 adbd cbe9 1cbc d6a5 8fbc e912 5fbb
00000050: e7b0 b13c 2879 b0be e561 443c 06f4 6cbe
00000060: de25 2abd 2e77 22be 2b0d 3fbb c389 fa3d
00000070: 3f05 c5bd a6a4 da3d 891b e8bb ba43 723d
00000080: 1a59 9abd 7cba c0be c03c dbbc bde3 4bbd
00000090: 7a70 ba3d bfeb 993d 62b8 b93c 5ccb 8d3d
000000a0: 256f 853d 4a52 d7be 7b6d 0bbe d089 b8bd
000000b0: df34 9b3e 7514 2cbe dacf 81bc b707 f83c
000000c0: ec70 233e 5258 743e d082 ba3d 315c 133b
000000d0: 9ecc 9cbe 6029 0dbe 36b8 00bd c748 d83c
000000e0: 1620 2dbc 96cb 4b3e 7c46 843d 0f75 aebc
000000f0: 31fc b5be 1be6 01be 5413 e03b e1d4 913d
00000100: f2ad 883e 8e9b 2c3e 39f8 ef3c 83c7 b03c
00000110: ed36 80be 6b58 32be eb78 92bd 1db4 8e3d
00000120: e29c 15bc 5381 26bd d226 b2bc 9a66 52be
00000130: b934 c83e 17f7 56bd b1cb 90bd 96c7 70be
00000140: 5bdc fabc 89b4 2bbd 20b0 9e3c 5217 973d
00000150: 4c0e e43e 5d87 72be b01b 19bd 5677 043e
00000160: 9f72 ab3a da69 0ebe a535 6c3d 5d41 e63d
00000170: d52c 1d3f 5084 3eba 4925 a3bc a402 193e
00000180: 8708 753e fd1c 3f3d e5e7 9c3d 1b3d f5bd
00000190: 7ba5 1dbe ec5c 8cbe 2024 d73d 724f 603d
000001a0: 6993 183e f858 c6bd 98c8 b7bd 7cf6 2e3c
000001b0: 40b5 a4bd ffba adbe f8c5 b6bd 56f7 babd
000001c0: 87c7 13bc 784d dabd 0167 383e 8317 6e3d
000001d0: 44cc 9cbd 33a0 cabe a751 323e 62ea 843d
000001e0: 8777 cfbd 1775 7fbd 2d60 2bbd 87b3 39bd
000001f0: 0b02 dbbd d345 01be 21c8 2c3d 8327 34bd
00000200: eafe bdbd 707e bbbc 9096 353d 1da4 0d3e
00000210: 9e93 0b3e ea96 e33d e033 29bd 31c3 053e
00000220: d843 d2bd 5d86 02be 97b3 033d deff a83e
00000230: d248 803e f918 f03e 417e 04bd c664 c63e
00000240: e245 79be d287 75be f94b 973b d7fe 643e
00000250: 3019 d33e 6f76 86be f417 bfbc 3f98 143e
00000260: 3c14 f3bd 2c48 ea3b 182d b9bb 9c2e b8bd
00000270: 70c9 2d3e 1714 37bd 184a 32bd 6e7f 8abd
00000280: d683 c8bc 1e6b 4e3d 063e 15bd 532c 9bbe
00000290: a091 543d f92b 133e fe4b 09bd af0b 97be
000002a0: e20b 803e b63b 3c3d f899 573d 1d8a 913b
000002b0: 402e e23e e420 ae3d 592c 0fbd c224 8cbd
000002c0: 9ca6 473e 318a ebbd 99d7 d7bc 60e5 45be
000002d0: aa2a 943e 7ebe a53e 0eda 753c 51db cfbd
000002e0: eb0e 553e f787 b0bd f562 673d 190d 983d
000002f0: 0572 773e c5e0 7ebe 5b68 183a 5e36 c8bc
00000300: ece9 803e 4b5a 2abe 32e9 0f3d 9150 23be
00000310: b975 28be 1c3c c23d 83b4 a4bd 8155 4bbe
00000320: e56f 3f3e 149d 8ebe ed4c 29bd bbde 7bbe
00000330: aaae 3ebd 5f03 df3e 034c b63d e0d5 62be
00000340: f5ec 51bd 6de3 83be 11c6 893d e67c febd
00000350: 934f 1d3e 2b0d eb3c 3936 c0bc 5935 01bd
00000360: 550c acbc 8fe8 89be d834 cfbd ed86 3abe
00000370: b7bf 8fbc 06de 803d 2311 95bc 2305 babd
00000380: 464a dd3c 7b14 a3be acaf d3bd efa8 a2bc
00000390: 97da d8bd 303f f33d fe44 d7bd da16 c0bd
000003a0: 0d42 51bd 5be7 9fbe f58f f1bd 1e03 51be
000003b0: d5f1 18be d5c2 143f aaa9 ce3b 34f0 4cbe
000003c0: 7c79 32bd 99cf c73c a467 da3c 4cf2 c2bc
000003d0: fa7e b1be e9e1 e7bd d8c0 813c 40c2 06bc
000003e0: 52a3 77bd b4fa 66bd 84c4 313d ac56 babd
000003f0: b704 f7bc af9b 073e 996d 273c 888b 0f3e

fc1.bias f4 [64]
0.14127141 0.12753274 0.07730013 0.049059495 -0.02982871 0.10294103 -0.019313982 -0.14975911
-0.100569226 0.26977822 -0.13398297 -0.20266889 0.34207767 0.046088014 -0.23691209 0.12845148
-0.034346275 0.092070915 -0.124657236 0.013427618 0.054259308 0.1611059 0.13078249 -0.08791324
-0.14042115 -0.07826437 0.08333297 0.14145769 -0.0017134609 0.08035016 -0.07877003 -0.14244296
0.22433744 -0.15125301 -0.17233792 -0.21879427 -0.05048501 -0.011386102 0.25641525 0.20937629
-0.0032096924 -0.060566626 0.12940282 0.1471894 0.009891145 0.024835167 0.05121896 -0.09265333
-0.05068416 0.2656154 -0.03425603 -0.2880223 0.10471649 0.29543498 0.29349145 0.040386856
-0.03325317 0.11991105 -0.13706481 -0.010632088 0.16472782 0.14491378 0.07359587 -0.15816246
00000000: 74a9 103e f197 023e 884f 9e3d 9cf2 483d
00000010: 575b f4bc bfd2 d23d 5b38 9ebc 745a 19be
00000020: 3df7 cdbd 5f20 8a3e d532 09be 6f88 4fbe
00000030: ce24 af3e c9c6 3c3d 1599 72be c988 033e
00000040: aeae 0cbd ad8f bc3d 4b4c ffbd 83ff 5b3c
00000050: 023f 5e3d f2f8 243e d8eb 053e db0b b4bd
00000060: 90ca 0fbe 1249 a0bd 7aaa aa3d 49da 103e
00000070: 3596 e0ba a08e a43d 2e52 a1bd 91dc 11be
00000080: b7b8 653e 12e2 1abe 5a79 30be 9b0b 60be
00000090: 5fc9 4ebd c68c 3abc dc48 833e bd66 563e
000000a0: b459 52bb b614 78bd 2c82 043e d1b8 163e
000000b0: 780e 223c 1f73 cb3c f9ca 513d 07c1 bdbd
000000c0: 329a 4fbd befe 873e 0d50 0cbd a977 93be
000000d0: 9975 d63d 4143 973e 8344 963e b06c 253d
000000e0: 7a34 08bd ed93 f53d b85a 0cbe 3632 2ebc
000000f0: 69ae 283e 4764 143e 6eb9 963d 57f5 21be

fc2.weight f4 [64, 64]
0.058748603 -0.012485474 -0.09261482 -0.3560527 0.08439946 -0.012974363 -0.07068351 -0.12795946
-0.05942827 -0.025657946 0.05205971 0.007278217 0.10262996 0.08665247 0.09212728 -0.015923979
-0.4404706 -0.25321677 -0.13626592 -0.06756766 0.00024438702 -0.044943124 0.16223007 -0.14367856
0.059816312 -0.014744831 0.029799294 0.08990781 0.19489254 -0.05295093 -0.048940253 -0.14717269
0.22388338 0.0019474499 0.0911413 0.0722602 0.10088663 0.038276415 -0.18259744 0.09819623
-0.0901315 0.14279908 -0.168418 0.035731222 -0.3301855 0.20255761 0.0075734914 0.080000095
0.13723558 0.18041724 -0.06276954 -0.02456979 -0.0134137 0.10172587 0.1043708 -0.15999852
-0.060219377 -0.031693533 0.0866682 -0.10399968 0.12414259 0.003630503 -0.30271396 0.036718205
-0.11219525 0.23094778 -0.12091252 -0.18147801 0.005147499 -0.43781233 -0.2294618 0.12537599
0.060256876 0.07654332 -0.22216107 0.088027 0.03593926 0.01861414 0.051652193 0.01334375
0.060263883 0.07312395 0.02569091 0.27856538 -0.044556227 -0.06033207 0.24485663 -0.49147752
0.118380785 -0.123610705 0.029712513 -0.31538433 0.042263772 -0.04736555 0.03623856 0.045275483
0.12537588 -0.15079544 -0.0689103 -0.08099554 0.24761575 0.028521745 -0.19578417 -0.07976949
-0.00015598767 0.13809827 0.13205795 0.118898086 0.10024524 0.03942896 0.11171132 0.16143803
0.12705025 0.061604496 -0.027196217 0.024543896 -0.23537375 -0.16138938 0.18816684 0.5570678
-0.029239986 0.10611817 -0.029570911 0.16132171 -0.09246054 0.007876219 0.015522692 -0.115707256
0.17993818 0.021255469 0.0473008 0.16346699 0.06970017 0.0015353402 0.092921965 -0.22250395
-0.03267619 -0.09976542 -0.108884156 -0.12900053 -0.21756057 0.09412455 -0.21667325 0.0017340698
0.27036676 0.07349007 -0.010672481 0.01766028 -0.023020167 -0.018011054 0.16067375 0.10904825
0.10862895 0.4227486 0.19945548 -0.17162487 0.4220351 -0.07732719 0.07942748 0.22671928
-0.21681224 0.029188776 -0.06312537 -0.12279179 0.07134366 0.011786251 0.005447518 0.100737594
0.012183209 0.11925164 0.06284066 0.03904431 -0.009917561 0.06056916 -0.29337344 -0.19335301
-0.15827358 0.35897416 0.026791632 0.017182825 0.045992486 -0.09893354 -0.20190205 0.060098406
-0.10901398 0.10865303 0.15837789 0.35762784 0.4091774 0.14024521 0.24174055 -0.072971545
0.08784275 -0.14802186 -0.13047558 -0.17196055 0.115127474 -0.2884757 -0.19051032 0.18812203
0.07543954 -0.10528552 -0.0036781859 0.20000964 -0.078388706 0.040950857 0.15053673 -0.14308885
-0.2660543 -0.12029988 0.13992086 0.2568168 0.11184675 0.040947787 0.03339011 0.07846746
0.028273491 -0.08294425 -0.1278665 -0.30687836 -0.073958546 0.060876142 0.08233718 -0.2613844
0.101671614 -0.29396972 -0.006721029 0.22501142 -0.04092522 -0.20973904 -0.3185703 -0.0914882
-0.031062491 0.07688566 -0.30146196 -0.08051115 0.39613432 0.12727816 -0.09062548 0.32835266
0.017663116 -0.15060072 0.20566563 0.083150916 -0.008746853 -0.1041125 0.02799286 -0.120849095
-0.24500471 -0.091353506 -0.44557455 0.037062764 -0.2618209 -0.10954573 0.23306054 0.13781063
00000000: 60a2 703d e08f 4cbc d7ac bdbd 8a4c b6be
00000010: a0d9 ac3d 6c92 54bc 84c2 90bd ce07 03be
00000020: 0f6b 73bd 9d30 d2bc 903c 553d 1c7e ee3b
00000030: a82f d23d da76 b13d 3aad bc3d 0173 82bc
00000040: 5d85 e1be a1a5 81be 4b89 0bbe ea60 8abd
00000050: 1221 8039 4816 38bd a41f 263e 7920 13be
00000060: f301 753d 4e94 71bc a61d f43c 9621 b83d
00000070: e991 473e 13e3 58bd 9375 48bd 70b4 16be
00000080: af41 653e 9341 ff3a 4aa8 ba3d 28fd 933d
00000090: a69d ce3d bbc7 1c3d d3fa 3abe 1b1b c93d
000000a0: dd96 b8bd ec39 123e c575 2cbe e75a 123d
000000b0: 130e a9be 436b 4f3e 0d2b f83b 17d7 a33d
000000c0: 7c87 0c3e 4cbf 383e 518d 80bd 9646 c9bc
000000d0: 23c5 5bbc a755 d03d 5cc0 d53d a7d6 23be
000000e0: 98a8 76bd 14d1 01bd 197f b13d c9fd d4bd
000000f0: 783e fe3d bced 6d3b 53fd 9abe d465 163d
00000100: a0c6 e5bd 937d 6c3e fca0 f7bd 5fd5 39be
00000110: 5aac a83b f028 e0be 09f8 6abe 9062 003e
00000120: eacf 763d bfc2 9c3d 317e 63be 8047 b43d
00000130: 0c35 133d ae7c 983c 4091 533d be9f 5a3c
00000140: 43d7 763d 02c2 953d be75 d23c 1fa0 8e3e
00000150: 9780 36bd c31e 77bd b2bb 7a3e f1a2 fbbe
00000160: a071 f23d 9c27 fdbd a867 f33c 0e7a a1be
00000170: c71c 2d3d 6102 42bd e26e 143d c972 393d
00000180: 8962 003e 1f6a 1abe d820 8dbd fde0 a5bd
00000190: fc8e 7d3e 6fa6 e93c a57b 48be 305e a3bd
000001a0: 9f90 23b9 a269 0d3e 333a 073e d780 f33d
000001b0: 604d cd3d 4380 213d e8c8 e43d 0350 253e
000001c0: 7619 023e ff54 7c3d 9aca debc 4810 c93c
000001d0: d105 71be 4243 25be cfae 403e ff9b 0e3f
000001e0: b288 efbc 7c54 d93d b23e f2bc 8531 253e
000001f0: f45b bdbd 420b 013c e452 7e3c edf7 ecbd
00000200: b741 383e f31f ae3c 7cbe 413d e463 273e
00000210: f6be 8e3d 783d c93a df4d be3d 13d8 63be
00000220: 78d7 05bd d051 ccbd a8fe debd b718 04be
00000230: 33c8 5ebe 5fc4 c03d 98df 5dbe ba49 e33a
00000240: 836d 8a3e f681 963d a1db 2ebc 4bac 903c
00000250: ca94 bcbc eb8b 93bc a987 243e b054 df3d
00000260: db78 de3d 8172 d83e 0f3e 4c3e 6ebe 2fbe
00000270: fc14 d83e b85d 9ebd e0aa a23d 1929 683e
00000280: 0704 5ebe 4d1d ef3c e047 81bd 437a fbbd
00000290: a01c 923d 1f1b 413c 1881 b23b 834f ce3d
000002a0: 159c 473c 343a f43d 9bb2 803d edec 1f3d
000002b0: 447d 22bc 5e17 783d 0b35 96be 55fe 45be
000002c0: 7812 22be 76cb b73e 207a db3c ffc2 8c3c
000002d0: 9e62 3c3d ab9d cabd 69bf 4ebe bf29 763d
000002e0: b942 dfbd 7b85 de3d d02d 223e ff1a b73e
000002f0: b37f d13e 719c 0f3e d68a 773e 1b72 95bd
00000300: e6e6 b33d 0b93 17be 649b 05be 6d16 30be
00000310: f4c7 eb3d 16b3 93be 2315 43be 10a3 403e
00000320: 0c80 9a3d ef9f d7bd b80d 71bb 54cf 4c3e
00000330: 428a a0bd 16bc 273d 4d26 1a3e e285 12be
00000340: 4538 88be c95f f6bd 6a47 0f3e 7e7d 833e
00000350: e90f e53d deb8 273d 11c4 083d 8cb3 a03d
00000360: cf9d e73c adde a9bd 70ef 02be 291f 9dbe
00000370: 9477 97bd 4359 793d 65a0 a83d 2dd4 85be
00000380: 3539 d03d 3383 96be 143c dcbb 6569 663e
00000390: 34a1 27bd d5c5 56be a51b a3be 2a5e bbbd
000003a0: c476 febc 3b76 9d3d 3959 9abe 08e3 a4bd
000003b0: 1ed2 ca3e 3555 023e da99 b9bd d71d a83e
000003c0: 3db2 903c 1337 1abe 039a 523e 074b aa3d
000003d0: f64e 0fbc ef38 d5bd 4851 e53c bb7f f7bd
000003e0: 84e2 7abe 8c17 bbbd 5922 e4be 20cf 173d
000003f0: 640d 86be 8359 e0bd 6ca7 6e3e 3b1e 0d3e

fc2.bias f4 [64]
0.17849705 -0.036463987 -0.06107059 -0.045661777 0.17203245 -0.012064987 0.067282304 0.020375524
0.16799712 0.08386052 -0.0006860325 -0.14617597 0.084004626 -0.018578278 -0.05926847 -0.04385873
0.02708541 -0.08083269 -0.042404234 0.045262516 0.039282147 -0.12068221 -0.17442529 0.082960404
0.09282495 -0.11271322 0.0123083955 0.039521314 0.10382412 0.040840764 0.063656494 -0.018490436
0.039170105 0.20463437 0.20625703 -0.2685722 -0.08268597 0.11376759 -0.031632517 0.16901967
0.13742931 0.2230693 -0.117285945 0.03755823 0.05042221 -0.029455587 0.21259601 -0.035219073
0.14524351 -0.05236113 -0.062742725 0.14289023 -0.009603678 0.14567272 0.0034622687 -0.25733072
0.14447314 -0.043657824 0.017001908 0.029264752 0.015486009 0.037399862 0.051230717 0.080876954
00000000: eec7 363e 435b 15bd 2825 7abd d807 3bbd
00000010: 4629 303e 39ac 45bc 4ecb 893d 92ea a63c
00000020: 7007 2c3e 10bf ab3d ddd6 33ba 27af 15be
00000030: 9e0a ac3d 7931 98bc 7fc3 72bd 36a5 33bd
00000040: 39e2 dd3c 9c8b a5bd 10b0 2dbd 3065 393d
00000050: 51e6 203d 3c28 f7bd 8b9c 32be 25e7 a93d
00000060: 021b be3d 30d6 e6bd 27a9 493c 1ae1 213d
00000070: bda1 d43d a548 273d 565e 823d 4179 97bc
00000080: d570 203d ac8b 513e 0b35 533e 4c82 89be
00000090: 4357 a9bd fbfe e83d 1991 01bd 7e13 2d3e
000000a0: 45ba 0c3e 476c 643e 9d33 f0bd a9d6 193d
000000b0: 8587 4e3d d84c f1bc c5b2 593e e041 10bd
000000c0: b7ba 143e a078 56bd 427f 80bd d151 123e
000000d0: bf58 1dbc 3b2b 153e 3be7 623b dac0 83be
000000e0: c4f0 133e 8cd2 32bd 9647 8b3c a2bc ef3c
000000f0: 08b9 7d3c 9930 193d 4dd7 513d d1a2 a53d

fc3.weight f4 [2, 64]
0.21589026 -0.011625119 -0.29099578 -0.09212111 -0.0625032 0.33970463 -0.21230642 -0.16233847
0.016057668 -0.19772217 -0.16866532 0.26833898 0.24946453 0.1401154 0.09881169 -0.19300151
0.23310228 0.06695801 0.15636575 -0.107111834 0.25998253 -0.2879514 0.318958 0.07097835
0.35051152 0.064711444 0.18711407 0.10120063 0.2323022 0.37319356 -0.10037502 -0.2804832
0.12680866 0.06843767 -0.09379884 -0.120036855 -0.25694302 0.5498669 0.17062384 0.10864978
-0.28241405 0.30702788 0.07804889 -0.10013965 0.363169 -0.0494557 -0.17882672 0.3813863
0.04530612 0.12917663 -0.3119301 0.05642367 -0.025297865 -0.082175374 0.026835147 0.24786359
-0.14907892 -0.18491033 0.17266348 0.03764772 0.2999035 -0.013493471 -0.12796164 0.11476731
-0.035038788 0.37275115 -0.027782105 0.4073812 -0.0073463502 -0.32794842 -0.010467576 0.20866847
-0.3925222 0.30727607 0.08470779 0.45355958 0.07843842 0.28773084 -0.09544353 0.26457003
-0.074149124 0.3438096 -0.16537455 0.13231672 -0.0346706 -0.07325278 0.2939774 -0.30811882
-0.3462256 0.71701986 0.37188995 0.15895176 -0.20512255 0.087221906 -0.03238464 -0.29012647
-0.30384022 -0.16041555 0.14983693 -0.082365364 0.21177097 -0.25492346 0.091990024 -0.32940376
0.019157745 -0.09030311 -0.101588026 0.101374425 0.36915138 0.105590984 -0.04891908 0.3880026
-0.24280562 -0.3787329 -0.794526 -0.2125463 0.22191007 -0.1509189 -0.03406708 0.48674405
-0.52015007 -0.087558836 0.07926166 -0.2715545 -0.29246902 0.008102209 -0.13658306 -0.54636294
00000000: 5612 5d3e 4877 3ebc 66fd 94be fea9 bcbd
00000010: ad01 80bd c4ed ad3e db66 59be 0e3c 26be
00000020: 5f8b 833c ae77 4abe 9ab6 2cbe ba63 893e
00000030: a173 7f3e 697a 0f3e c95d ca3d 30a2 45be
00000040: 5db2 6e3e 4821 893d 581e 203e 735d dbbd
00000050: 6e1c 853e 5e6e 93be 774e a33e 195d 913d
00000060: 3f76 b33e 6f87 843d d59a 3f3e 4742 cf3d
00000070: a1e0 6d3e 3a13 bf3e 6b91 cdbd 7e9b 8fbe
00000080: 21da 013e 0d29 8c3d 9b19 c0bd e2d5 f5bd
00000090: 098e 83be 14c4 0c3f 04b8 2e3e c783 de3d
000000a0: 9398 90be c232 9d3e 19d8 9f3d 0416 cdbd
000000b0: 4af1 b93e 0f92 4abd 5a1e 37be 1145 c33e
000000c0: e992 393d e146 043e 4db5 9fbe 821c 673d
000000d0: 783d cfbc 904b a8bd 62d5 db3c f4cf 7d3e
000000e0: 25a8 18be 2259 3dbe b2ce 303e 7f34 1a3d
000000f0: f48c 993e b813 5dbc 6008 03be 200b eb3d
00000100: d584 0fbd 3dd9 be3e 4c97 e3bc 4594 d03e
00000110: a7b9 f0bb dbe8 a7be 3280 2bbc 30ad 553e
00000120: abf8 c8be 4a53 9d3e 477b ad3d f638 e83e
00000130: 53a4 a03d 7551 933e e677 c3bd b975 873e
00000140: 7fdb 97bd d007 b03e f257 29be 097e 073e
00000150: c202 0ebd 8e05 96bd 3584 963e c0c1 9dbe
00000160: 7b44 b1be 9d8e 373f 5c68 be3e 40c4 223e
00000170: a50b 52be 66a1 b23d c2a5 04bd 758b 94be
00000180: f290 9bbe f943 24be da6e 193e 2caf a8bd
00000190: 7dda 583e 5485 82be 4465 bc3d 9ca7 a8be
000001a0: b4f0 9c3c d6f0 b8bd 620d d0bd 659d cf3d
000001b0: 6901 bd3e 1640 d83d 605f 48bd 47a8 c63e
000001c0: 09a2 78be 47e9 c1be 0e66 4bbf bda5 59be
000001d0: 653c 633e 7c8a 1abe ec89 0bbd 8436 f93e
000001e0: 8e28 05bf 0c52 b3bd f053 a23d 3109 8bbe
000001f0: 80be 95be 21bf 043c 6edc 0bbe 71de 0bbf

fc3.bias f4 [2]
-0.04186731 -0.01532358
00000000: 0e7d 2bbd c10f 7bbc
