p3_collab-compet/checkpoint_critic_1_maddpg.pth (torch, 32279 bytes, 5 tensors)

fcs1.weight f4 [64, 48]
0.047770448 0.13659501 -0.0085678315 -0.2504813 -0.22051007 -0.2166254 0.0045993277 -0.110088706
-0.0058841663 0.24422015 -0.028593255 -0.10670363 -0.18239915 -0.31098542 0.002615252 -0.119547255
-0.11196597 0.23660645 -0.021108203 -0.08455419 -0.2755798 -0.117376134 -0.013896965 0.101568185
-0.07176841 -0.13420142 -0.09754323 -0.08581622 0.16622332 -0.22496353 0.09792962 0.006312502
0.090565145 0.13093174 0.05763246 -0.06735968 0.2093237 -0.26218352 -0.0739117 0.0456014
0.14148873 0.09205398 -0.029196275 0.08033902 0.18118677 -0.13255282 0.041470826 0.019491449
0.1798048 0.28909445 -0.027386717 0.15089844 -0.23824136 -0.107449755 -0.01227331 0.024176547
0.050830588 0.30826193 0.007778865 -0.15422294 -0.0438115 0.11415694 -0.038768332 0.030819707
0.10098089 0.46266198 -0.10603997 0.3875989 0.057494845 0.10856543 0.015788522 0.39527246
0.036136925 0.14177285 0.090036884 -0.029657714 0.23892452 -0.050213765 -0.08257784 0.056527965
0.06812366 0.12765816 -0.021827217 -0.02183282 0.0904927 0.064900644 0.027139064 -0.033167638
0.025500335 0.07784382 0.12331639 -0.04141569 -0.15622768 0.16682534 -0.10029961 0.094420925
0.0922445 0.67403895 0.043037333 -0.032048862 0.30493066 0.2570917 -0.052701317 -0.03303569
0.048255723 0.5163026 -0.0021057609 -0.09243511 0.22335319 0.035523035 0.004186801 -0.022260932
5.845548e-05 0.59756094 -0.020197777 -0.06135002 -0.2794973 -0.19999878 0.030849932 0.047554586
0.052124318 -0.106170416 0.008111366 -0.01137688 -0.36448833 0.26432872 -0.013482672 0.0052313553
-0.13958362 -0.22006251 0.028256172 0.020131249 -0.00016069866 0.1672056 -0.020825041 0.0031730563
-0.1634205 -0.17311758 0.0991822 -0.106543556 0.26617283 -0.34602067 -0.1006175 0.053609736
0.2718743 -0.34909415 -0.067774065 -0.016100267 -0.06362362 0.052192394 0.052593976 -0.14306675
0.22581454 -0.09529913 -0.060527124 -0.007238443 -0.099634 0.23183306 0.08079346 -0.06182877
0.46142992 -0.116915844 0.021866586 0.14391436 -0.44346908 0.32280165 0.019447984 -0.058511585
0.10126938 0.03787418 0.0064240065 -0.04402389 -0.13925119 0.13491492 -0.015721831 -0.07319427
-0.009780834 -0.052917533 0.044307657 -0.048197355 0.036210258 0.09272602 -0.039310955 0.09162382
0.036700714 0.04384624 -0.050964996 -0.033639617 0.429121 0.3068472 0.05635588 -0.013441059
0.048531376 -0.3559353 0.022310633 -0.09937221 -0.12832032 0.08516534 -0.019517306 -0.050900932
-0.023592101 -0.43508634 0.047291085 -0.046146475 -0.1908822 -0.029711435 -0.02898414 -0.09268719
0.0071200044 -0.3561509 0.04605335 0.11537595 -0.11877542 0.1606881 -0.048013717 0.073147625
-0.056884486 -0.07466858 0.07276789 0.016165782 0.18162037 0.10906555 -0.07379752 0.00631714
-0.013089417 -0.018809998 0.014210169 -0.032903254 0.26876035 0.064430416 -0.018348057 -0.009613159
-0.023526331 -0.20637576 -0.028019583 0.021150526 0.06472457 0.1440852 0.016847974 0.09984763
0.2313662 -0.14385866 0.028780043 0.08895036 -0.30553353 -0.23553896 -0.035918355 -0.029703474
0.07502306 -0.25450298 -0.08968652 -0.16818124 -0.2076069 -0.04526194 0.10297216 -0.048259456
00000000: f2aa 433d 90df 0b3e 1760 0cbc 163f 80be
00000010: 64cd 61be 0dd3 5dbe f5b5 963b 3076 e1bd
00000020: f7cf c0bb d914 7a3e 673c eabc 6f87 dabd
00000030: d8c6 3abe 7b39 9fbe a664 2b3b 31d5 f4bd
00000040: 6a4e e5bd f648 723e 1ceb acbc bf2a adbd
00000050: cc18 8dbe e662 f0bd 19b0 63bc fb02 d03d
00000060: 51fb 92bd 196c 09be bfc4 c7bd 6ac0 afbd
00000070: 7236 2a3e d75c 66be 538f c83d 1bd9 ce3b
00000080: 387a b93d f812 063e 0410 6c3d dff3 89bd
00000090: f458 563e eb3c 86be 045f 97bd 89c8 3a3d
000000a0: 6ce2 103e cc86 bc3d 072d efbc c988 a43d
000000b0: 0689 393e edbb 07be 50dd 293d 88ac 9f3c
000000c0: c01e 383e 3004 943e 1c5a e0bc 1f85 1a3e
000000d0: 8bf5 73be 9e0e dcbd fe15 49bc e50d c63c
000000e0: bc33 503d 82d4 9d3e d9e5 fe3b 9eec 1dbe
000000f0: b073 33bd 1dcb e93d 8bcb 1ebd 9c79 fc3c
00000100: 12cf ce3d 08e2 ec3e 7c2b d9bd 5d73 c63e
00000110: b77f 6b3d 8d57 de3d ee56 813c 2761 ca3e
00000120: 5004 143d e72c 113e 4265 b83d bcf4 f2bc
00000130: a1a8 743e f3ac 4dbd 921e a9bd de89 673d
00000140: 6b84 8b3d d2b8 023e fece b2bc beda b2bc
00000150: 3d54 b93d a1ea 843d be52 de3c cada 07bd
00000160: 14e6 d03c 956c 9f3d 4e8d fc3d 80a3 29bd
00000170: 26fa 1fbe 43d4 2a3e e269 cdbd c25f c13d
00000180: afea bc3d d18d 2c3f ea47 303d ab45 03bd
00000190: df1f 9c3e 86a1 833e 56dd 57bd 6f50 07bd
000001a0: cba7 453d 682c 043f ce00 0abb 9e4e bdbd
000001b0: b3b6 643e 9a80 113d 6f31 893b 8f5c b6bc
000001c0: 182e 7538 c1f9 183f cf75 a5bc 294a 7bbd
000001d0: 451a 8fbe 7bcc 4cbe ffb8 fc3c 99c8 423d
000001e0: 4f80 553d e06f d9bd 89e5 043c 1866 3abc
000001f0: 379e babe 1856 873e 6de6 5cbc ca6b ab3b
00000200: 02ef 0ebe 1158 61be 7d79 e73c 4aea a43c
00000210: 3881 28b9 f237 2b3e 4799 aabc 0df3 4f3b
00000220: b457 27be bc45 31be 0a20 cb3d 8233 dabd
00000230: ce47 883e 9f29 b1be 8c10 cebd e295 5b3d
00000240: 1c33 8b3e 78bc b2be 21cd 8abd b5e4 83bc
00000250: 1a4d 82bd b1c7 553d c86c 573d 1780 12be
00000260: ed3b 673e 312c c3bd 4aeb 77bd 7630 edbb
00000270: e90c ccbd a565 6d3e 0b77 a53d 2a40 7dbd
00000280: 8b40 ec3e 9371 efbd 8e21 b33c 495e 133e
00000290: 610e e3be 4246 a53e 6151 9f3c d8a9 6fbd
000002a0: 5266 cf3d f521 1b3d 7980 d23b 6552 34bd
000002b0: dd97 0ebe 2327 0a3e 12cb 80bc e1e6 95bd
000002c0: cb3f 20bc 0ec0 58bd f27b 353d 976a 45bd
000002d0: 3551 143d 24e7 bd3d 8604 21bd 45a5 bb3d
000002e0: 7d53 163d 1d98 333d acc0 50bd b2c9 09bd
000002f0: bfb5 db3e 141b 9d3e 6cd5 663d e337 5cbc
00000300: d6c8 463d 273d b6be cac4 b63c a883 cbbd
00000310: 6766 03be 2a6b ae3d c2e2 9fbc 7f7d 50bd
00000320: 3944 c1bc a3c3 debe 4cb4 413d 1604 3dbd
00000330: a076 43be 6565 f3bc 2670 edbc c8d2 bdbd
00000340: ed4e e93b 6959 b6be 70a2 3c3d 3a4a ec3d
00000350: 8740 f3bd 6c8b 243e 08aa 44bd 6cce 953d
00000360: b5ff 68bd d7eb 98bd 5507 953d 1a6e 843c
00000370: b1fa 393e c25d df3d 2723 97bd 0300 cf3b
00000380: fe74 56bc 6d17 9abc c5d1 683c 90c5 06bd
00000390: f59a 893e 18f4 833d aa4e 96bc 8380 1dbc
000003a0: 4bba c0bc 2b54 53be 5389 e5bc de43 ad3c
000003b0: 518e 843d 128b 133e c304 8a3c ea7c cc3d
000003c0: 43eb 6c3e af4f 13be 20c4 eb3c 9b2b b63d
000003d0: e46e 9cbe 2031 71be 201f 13bd b354 f3bc
000003e0: b1a5 993d 374e 82be 91ad b7bd b437 2cbe
000003f0: e796 54be 9664 39bd 11e3 d23d b5ab 45bd

fcs1.bias f4 [64]
-0.11139873 -0.27652496 0.2555839 -0.19185412 -0.19541655 -0.12434303 0.31899542 -0.1336505
0.26050383 0.33938444 0.039363347 -0.28345543 0.43182734 -0.16625704 -0.019106638 0.17416674
0.36169848 0.10385775 0.15989725 0.31503287 0.045334015 0.26695627 0.30592224 0.27243918
-0.15495457 -0.07427384 -0.17205974 0.27956972 -0.21534444 -0.3282069 -0.17640507 0.028015949
-0.15250765 0.12788855 0.065837905 -0.25339356 -0.19300167 0.2705416 0.092396185 0.07421635
0.22954236 0.06699686 0.0014097393 0.016375836 -0.23876831 -0.32900074 0.17967615 -0.24930814
-0.26801386 0.34645233 -0.1460001 -0.40286988 0.029149352 -0.14392743 -0.18796074 -0.18429112
-0.31766674 0.1450698 0.45565763 0.12343624 -0.06923035 0.14491661 0.3421069 -0.23517226
00000000: 0425 e4bd ae94 8dbe e5db 823e 6875 44be
00000010: 471b 48be 8fa7 febd 5e53 a33e addb 08be
00000020: c260 853e ccc3 ad3e 763b 213d 1221 91be
00000030: 7918 dd3e 493f 2abe 8685 9cbc c458 323e
00000040: 8b30 b93e 5fb3 d43d 1bbc 233e fd4b a13e
00000050: 29b0 393d 7eae 883e d7a1 9c3e 267d 8b3e
00000060: 69ac 1ebe e21c 98bd 6e30 30be c323 8f3e
00000070: 4183 5cbe bc0a a8be 88a3 34be b481 e53c
00000080: f72a 1cbe 37f5 023e 06d6 863d cdbc 81be
00000090: 3ba2 45be 6e84 8a3e 363a bd3d befe 973d
000000a0: 270d 6b3e a635 893d 00c7 b83a 9e26 863c
000000b0: ae7f 74be c972 a8be 06fd 373e a24a 7fbe
000000c0: 1d39 89be 3362 b13e 0d81 15be f644 cebe
000000d0: 9fca ee3c b661 13be c878 40be d0b6 3cbe
000000e0: 37a5 a2be 2d8d 143e f54b e93e 24cc fc3d
000000f0: a4c8 8dbd 0565 143e a328 af3e ffd0 70be

fc2.weight f4 [64, 68]
-0.115268044 -0.05833825 -0.27949163 -0.032733914 0.03962469 0.040637832 0.106076114 0.013778786
0.03268125 -0.031487677 -0.05632185 -0.035915244 -0.22307734 -0.16429627 -0.0011465537 0.043796342
-0.15641433 -0.0882939 -0.049048394 0.05260453 0.05407526 -0.060886465 -0.096241586 -0.07628969
0.1007924 -0.015105409 -0.20398736 -0.035899233 0.050997287 -0.19424339 -0.0077294023 -0.052390378
-0.065230094 0.07281308 -0.037472945 0.05002305 0.032631345 -0.089010544 -0.080152154 -0.07446975
0.17440045 -0.04105244 -0.07946802 -0.06288452 -0.30481413 -0.24065651 0.012840864 0.038183335
-0.040411722 -0.09265979 0.039279938 -0.040513754 -0.00369821 -0.17208274 0.0747045 -0.23953746
-0.103467144 0.050036978 0.030166224 -0.11011722 0.05106923 0.04083294 -0.1951677 0.033675786
-0.21634965 0.08221288 0.04042574 0.10581767 -0.0771059 0.0029212954 0.015129098 -0.033800278
-0.03886071 -0.10661067 0.11994043 0.07518653 -0.18880959 -0.06255835 -0.23828559 -0.0038817558
-0.04836379 0.13043916 -0.09143146 0.002456528 0.14524266 -0.14528455 0.41614377 0.06393266
0.07243276 -0.025301741 -0.08889592 -0.03353752 -0.043677926 -0.04380782 0.0993604 -0.0832719
-0.17171912 -0.15423848 0.0807527 0.004336804 -0.055168398 0.109615155 -0.093891636 -0.08980918
-0.11275832 0.15435265 -0.053890046 -0.017592466 -0.007976885 0.2066641 0.050462283 0.021245463
0.07674742 -0.108295366 -0.09300664 -0.038808946 0.03354065 -0.0934704 -0.13982165 -0.1185336
-0.09381428 -0.0011545182 -0.12773567 0.069388926 -0.10074231 -0.10787441 0.06930838 0.08414983
-0.003622352 0.10840524 0.0012666743 -0.13770126 -0.26433656 0.022927457 0.054267235 -0.100557916
0.058222592 0.07244488 -0.06771788 -0.117148995 -0.25146368 -0.14031607 0.11079131 -0.0434821
-0.25094077 -0.04559897 -0.025026115 -0.3515694 0.0132591585 0.10870035 -0.06140915 0.06557396
0.032482438 -0.21944456 -0.016411409 -0.11804369 -0.06838059 -0.07443092 0.133552 0.041569438
0.093313165 -0.23899125 0.038485475 -0.20085065 -0.13779974 -0.777076 -0.36323047 -0.07263749
0.0050602886 0.23684439 -0.063133635 -0.094521426 -0.025907783 0.05606579 -0.025779838 -0.07710182
-0.37813535 -0.10096065 -0.121600404 0.13289306 -0.0525371 0.13190107 -0.05224622 -0.10003244
-0.22478113 0.0013968591 0.047748096 -0.06507365 -0.017902043 0.037390713 -0.043717507 0.016539685
-0.014900361 -0.018636089 0.017342227 0.14985685 0.0095230015 -0.18642625 -0.04566317 -0.060955428
0.06830819 0.16852696 -0.8111848 -0.043193888 -0.04110656 -0.06801356 -0.07714421 -0.16067556
-0.15127139 -0.11782326 -0.119571224 0.20462675 0.032450035 -0.06702866 -0.10769868 -0.04444835
-0.045664914 -0.10813062 -0.095206894 -0.12684192 -0.014779892 0.076902136 -0.029360907 -0.36714363
-0.0992777 -0.114532456 -0.14580247 0.0743382 -0.32943773 0.04602888 0.07805746 0.082953714
-0.07799335 -0.013095435 -0.10923543 -0.026039049 0.01874325 -0.023454392 0.05894165 0.0022204712
-0.062368713 -0.14103536 0.04495675 -0.114256784 -0.14074293 -0.0063379398 0.06937444 0.04349168
-0.025990503 -0.050910994 0.0012380239 -0.046476807 -0.18708263 -0.22278383 -0.09306469 -0.19497375
00000000: a711 ecbd 17f4 6ebd 8719 8fbe ff13 06bd
00000010: 804d 223d db73 263d 6f3e d93d 6bc0 613c
00000020: c6dc 053d 39f9 00bd bdb1 66bd dd1b 13bd
00000030: 636e 64be 483d 28be f547 96ba cb63 333d
00000040: 142b 20be 6fd3 b4bd f8e6 48bd d977 573d
00000050: 057e 5d3d 1664 79bd 4f1a c5bd c53d 9cbd
00000060: 3f6c ce3d ad7c 77bc 10e2 50be 130b 13bd
00000070: 88e2 503d bde7 46be ed46 fdbb 4b97 56bd
00000080: 5b97 85bd 061f 953d 3b7d 19bd f8e4 4c3d
00000090: 72a8 053d 294b b6bd d026 a4bd 9983 98bd
000000a0: 0896 323e 9a26 28bd 21c0 a2bd 99c9 80bd
000000b0: 9910 9cbe a96e 76be 7d62 523c 2166 1c3d
000000c0: c386 25bd 6ac4 bdbd 00e4 203d c0f1 25bd
000000d0: ab5d 72bb 7536 30be acfe 983d 4f49 75be
000000e0: 95e6 d3bd 93f3 4c3d 281f f73c 2385 e1bd
000000f0: f82d 513d 7140 273d 0bda 47be 9fef 093d
00000100: c38a 5dbe 3a5f a83d 7695 253d efb6 d83d
00000110: b3e9 9dbd 3473 3f3b 09e0 773c 2972 0abd
00000120: 682c 1fbd b256 dabd 54a3 f53d 65fb 993d
00000130: 4d57 41be 981e 80bd 2301 74be 0e65 7ebb
00000140: 1c19 46bd d891 053e 6b40 bbbd b3fd 203b
00000150: 7eba 143e 79c5 14be cc10 d53e 20ef 823d
00000160: a057 943d 9945 cfbc 100f b6bd a35e 09bd
00000170: a0e7 32bd d46f 33bd 777d cb3d 758a aabd
00000180: 23d7 2fbe b1f0 1dbe ac61 a53d c01b 8e3b
00000190: 42f8 61bd e97d e03d 424a c0bd e0ed b7bd
000001a0: d6ed e6bd 9f0e 1e3e cfbb 5cbd 131e 90bc
000001b0: 7bb1 02bc c19f 533e 8ab1 4e3d f70a ae3c
000001c0: c02d 9d3d f6c9 ddbd 447a bebd 21f6 1ebd
000001d0: ec61 093d 696d bfbd 682d 0fbe bec1 f2bd
000001e0: b421 c0bd 3453 97ba 24cd 02be c81b 8e3d
000001f0: fc51 cebd 42ed dcbd 8df1 8d3d bf56 ac3d
00000200: fb64 6dbb 9103 de3d 8906 a63a 8f01 0dbe
00000210: 1f57 87be 5dd2 bb3c 5247 5e3d 4ff1 cdbd
00000220: d07a 6e3d fb5d 943d acaf 8abd d0eb efbd
00000230: d9bf 80be 04af 0fbe 8ee6 e23d 491a 32bd
00000240: 4f7b 80be fcc5 3abd 9103 cdbc e800 b4be
00000250: f13c 593c 4a9e de3d 2988 7bbd a44b 863d
00000260: 4e0c 053d 13b6 60be 3871 86bc e4c0 f1bd
00000270: 1f0b 8cbd 3d6f 98bd dbc1 083e b744 2a3d
00000280: f91a bf3d 1fba 74be f2a2 1d3d cbab 4dbe
00000290: 601b 0dbe 74ee 46bf 58f9 b9be f7c2 94bd
000002a0: c7d0 a53b 5687 723e 354c 81bd 7394 c1bd
000002b0: 8f3c d4bc 3ea5 653d 3d30 d3bc 8fe7 9dbd
000002c0: f59a c1be 75c4 cebd a209 f9bd 1e15 083e
000002d0: 2431 57bd 1311 073e 2200 56bd cfdd ccbd
000002e0: 062d 66be d016 b73a 8293 433d 5545 85bd
000002f0: 4ea7 92bc 0127 193d 2111 33bd 3c7e 873c
00000300: a520 74bc b6aa 98bc 4911 8e3c 1374 193e
00000310: 5d06 1c3c 86e6 3ebe 4e09 3bbd 66ac 79bd
00000320: 2ae5 8b3d 5592 2c3e cfa9 4fbf 13ec 30bd
00000330: 5a5f 28bd b14a 8bbd c9fd 9dbd 2288 24be
00000340: e3e6 1abe 524d f1bd c2e1 f4bd ad89 513e
00000350: 54ea 043d 5246 89bd 2091 dcbd 790f 36bd
00000360: 220b 3bbd 9673 ddbd d5fb c2bd d9e2 01be
00000370: 5c27 72bc de7e 9d3d 4986 f0bc 40fa bbbe
00000380: 1b52 cbbd fe8f eabd 3e4d 15be a03e 983d
00000390: 10ac a8be c788 3c3d 97dc 9f3d a3e3 a93d
000003a0: faba 9fbd 3c8e 56bc d3b6 dfbd d84f d5bc
000003b0: 728b 993c 6d23 c0bc cd6c 713d 5385 113b
000003c0: 5676 7fbd 936b 10be 9224 383d 76ff e9bd
000003d0: ea1e 10be 7eae cfbb 3014 8e3d 5524 323d
000003e0: 09ea d4bc 0c88 50bd 3045 a23a 775e 3ebd
000003f0: 9792 3fbe 7221 64be b398 bebd 33a7 47be

fc2.bias f4 [64]
-0.15730979 0.06646691 -0.13953893 -0.00015001853 -0.0774378 -0.07958758 -0.15326518 -0.13952373
-0.08360997 -0.026937507 0.035951193 0.020644011 -0.09822787 -0.0374966 -0.11833072 -0.22153701
0.05726965 0.03467097 -0.09021601 -0.016570462 -0.08417079 0.040387474 -0.0031651498 -0.12862876
0.042258356 -0.20828277 -0.036290497 -0.0055648275 0.057379454 -0.046495616 -0.05904985 -0.18216082
-0.109794155 -0.1286402 -0.10261017 -0.17247191 0.022779495 -0.09387399 -0.052671775 0.04536925
-0.01871051 0.03369591 -0.021002848 0.04562186 0.014629752 0.1414654 0.015143971 -0.33085132
0.045193456 -0.1435829 0.006552082 -0.08648703 -0.12723793 0.02990169 -0.2735493 -0.12788343
-0.010869314 0.03367063 -0.12801476 -0.09577689 -0.020987527 0.083572015 -0.19665512 0.043863874
00000000: d115 21be ce1f 883d 4be3 0ebe 4b4e 1db9
00000010: b697 9ebd d0fe a2bd 8cf1 1cbe 4fdf 0ebe
00000020: b43b abbd 0cac dcbc 8f41 133d a11d a93c
00000030: b22b c9bd 0996 19bd 6057 f2bd 99da 62be
00000040: 9593 6a3d 2603 0e3d 2cc3 b8bd c7be 87bc
00000050: bc61 acbd 566d 253d 676e 4fbb 42b7 03be
00000060: 1917 2d3d 1448 55be 58a5 14bd 2859 b6bb
00000070: b806 6b3d 3072 3ebd 41de 71bd 5e88 3abe
00000080: c2db e0bd 42ba 03be 4825 d2bd 7a9c 30be
00000090: 109c ba3c 0241 c0bd 5cbe 57bd 1bd5 393d
000000a0: c946 99bc b904 0a3d 2a0e acbc fddd 3a3d
000000b0: a1b1 6f3c 4edc 103e 6b1e 783c 5865 a9be
000000c0: c61c 393d 6507 13be d9b2 d63b 1d20 b1bd
000000d0: a94a 02be 64f4 f43c a70e 8cbe e0f3 02be
000000e0: 3515 32bc 37ea 093d 4d16 03be ad26 c4bd
000000f0: 09ee abbc ce27 ab3d f65f 49be 9baa 333d

fc3.weight f4 [1, 64]
0.016166316 -0.00715189 -0.033682983 0.007873117 0.025573373 0.011147736 0.06090947 -0.00876105
0.012695839 0.00020883887 0.010858382 0.0097645605 0.0062306672 -0.037236992 -0.007113851 -0.0046927724
-0.0040819524 0.014604805 -0.006846667 -0.015505933 0.028112886 -0.0058027385 -0.012426894 -0.0129489405
-0.028294059 -0.012651931 0.013160766 -0.0005393009 0.027026394 0.02257394 -0.026240245 -0.01693111
-0.007812146 0.07523341 0.014304867 -0.00725333 -0.03449309 0.010992396 0.04491997 0.014541781
0.011438745 -0.011637347 0.015269825 -0.014145566 -0.0066690915 0.021510363 0.008893195 -0.023296224
-0.0159736 -0.017421111 0.010912174 0.024365127 0.0410409 -0.011883007 -0.005784147 -0.0056645703
-0.014317761 -0.0090263765 -0.03789458 -0.026907561 -0.03521929 -0.05537285 -0.010496424 -0.024138147
00000000: 396f 843c 675a eabb 2bf7 09bd 3ffe 003c
00000010: 407f d13c fea4 363c 357c 793d 828a 0fbc
00000020: 3502 503c c2fb 5a39 5be7 313c 89fb 1f3c
00000030: a02a cc3b d185 18bd 4f1b e9bb d4c5 99bb
00000040: e6c1 85bb fe48 6f3c 015a e0bb 990c 7ebc
00000050: ff4c e63c e624 bebb 2c9a 4bbc cb27 54bc
00000060: f1c8 e7bc 0b4a 4fbc 41a0 573c df5f 0dba
00000070: 7566 dd3c fcec b83c c8f5 d6bc 1cb3 8abc
00000080: 08fd ffbb f913 9a3d f65e 6a3c 58ad edbb
00000090: a048 0dbd 7319 343c 01fe 373d a640 6e3c
000000a0: 9369 3b3c 92aa 3ebc 4a2e 7a3c cec2 67bc
000000b0: 6588 dabb 8036 b03c c3b4 113c b9d7 bebc
000000c0: 11db 82bc b8b6 8ebc fac8 323c 6099 c73c
000000d0: 811a 283d f2b0 42bc f188 bdbb dc9d b9bb
000000e0: 0b95 6abc 5ee3 13bc 5937 1bbd 3f6d dcbc
000000f0: 1a42 10bd a4ce 62bd 31f9 2bbc 5dbd c5bc
