p3_collab-compet/checkpoint_actor_2_maddpg.pth (torch, 25367 bytes, 6 tensors)

fc1.weight f4 [64, 24]
0	0x3d160312	0.03662402
1	0xbdbc7f0f	-0.09203922
2	0x3c4b8bf5	0.012423505
3	0x3d88fcbf	0.066888325
4	0xbe9418cf	-0.28925177
5	0xbe8a6264	-0.2702819
6	0xbb8a3484	-0.004217686
7	0x3e2c7dae	0.16844818
8	0x3e5265d9	0.20546664
9	0xbe4eaa9b	-0.20182268
10	0x3da31b35	0.07964174
11	0xbdfccd93	-0.12343898
12	0xbdc9006a	-0.09814532
13	0xbda60933	-0.08107223
14	0xbd8342cc	-0.06409225
15	0xbdfc3b38	-0.123159826
16	0x3e8191a8	0.2530644
17	0xbe701d30	-0.23448634
18	0x3d836d1b	0.064172946
19	0x3c221f7d	0.009895203
20	0xbeaf18f0	-0.34198713
21	0x3eafdde0	0.34348965
22	0x3dbfe3d3	0.09369626
23	0xbe5f569f	-0.21810387
24	0x3d856c16	0.065147564
25	0xbe0b10ca	-0.13580623
26	0xbd44c264	-0.048036948
27	0xbc169519	-0.009190821
28	0xbe0ed1c3	-0.13947205
29	0xbe7bb495	-0.24580605
30	0xbd55d538	-0.052205294
31	0xbd9439c3	-0.0723758
32	0x3e140155	0.14453633
33	0xbe0da270	-0.13831496
34	0xbd0f8d3d	-0.035046805
35	0xbc99ad10	-0.01875928
36	0xbda2c422	-0.079475656
37	0xbe3413c3	-0.17585663
38	0x3c6bb555	0.014386495
39	0x3dcd52ab	0.10025533
40	0x3ea40939	0.32038286
41	0xbe01caf6	-0.1267508
42	0xbe23e973	-0.16007023
43	0xbe5dc6b3	-0.21657829
44	0xbe0199e1	-0.12656356
45	0x3dfa2c0c	0.122154325
46	0xbd22d71a	-0.039755918
47	0xbdc50015	-0.09619156
48	0x3de4d93f	0.11174249
49	0xbe0a140f	-0.13484214
50	0x3bfd5a62	0.0077317217
51	0x3d5e846f	0.054325517
52	0x3de640de	0.11242841
53	0xbd91e670	-0.071240306
54	0xbdeb08de	-0.11476301
55	0x3da0b8e4	0.07847765
56	0xbd3b650c	-0.045750663
57	0xbd6bc100	-0.057557106
58	0x3d2fea82	0.042948253
59	0x3c3086b5	0.010774304
60	0xbe24634e	-0.16053507
61	0xbdb65508	-0.08902937
62	0xbc7282ae	-0.014801664
63	0x3dd38301	0.103277214
64	0x3e46066e	0.1933839
65	0xbe1ba1bb	-0.15198414
66	0x3d543e0f	0.051816996
67	0x3cc6f518	0.024286792
68	0xbec6e5d7	-0.3884723
69	0xbded8bb9	-0.115989156
70	0xbd48af97	-0.04899558
71	0x3d943f66	0.07238655
72	0xbbc2990d	-0.005938655
73	0x3d64343a	0.05571387
74	0x3caac64f	0.020846514
75	0xbdfc592a	-0.12321694
76	0xbe4f48c7	-0.20242606
77	0x3d09d4a0	0.03365004
78	0xbce643a3	-0.028108424
79	0xbe1c8cb6	-0.15288052
80	0xbd81e995	-0.0634338
81	0xbdc83ffe	-0.097778305
82	0x3d06b83c	0.032890543
83	0xbeb1f4f1	-0.34757188
84	0xbd12ff7b	-0.035888176
85	0x3e95eb47	0.29281065
86	0xbcc373ab	-0.023858866
87	0xbe957ed3	-0.29198322
88	0x3d2c1d6f	0.042020258
89	0xbebf70b9	-0.37390688
90	0x3d4e5fcb	0.050384324
91	0xbe921a43	-0.2853566
92	0xbd16bd75	-0.036801774
93	0x3f07e6b4	0.530864
94	0xbcdecfef	-0.02719876
95	0xbe7e536a	-0.24836507
96	0xbe0a8249	-0.13526262
97	0x3dd39af2	0.10332288
98	0x3d5e0704	0.05420591
99	0x3dbb221f	0.091373675
100	0xbe5104f1	-0.20412041
101	0x3ccc6ea6	0.024955105
102	0x3da93e91	0.08263887
103	0x3e8821ab	0.26588187
104	0xbd0a5103	-0.033768665
105	0x3d72644b	0.059177678
106	0xbd858829	-0.06520111
107	0x3e820b99	0.25399473
108	0xbd28d24f	-0.04121619
109	0xbe76d93a	-0.24106303
110	0xbd848591	-0.06470788
111	0x3e1bac12	0.15202358
112	0xbe21bab1	-0.15793873
113	0x3d8bc433	0.068245314
114	0x3e02e04a	0.12780872
115	0xbda1b1f1	-0.07895268
116	0x3d1808ef	0.037117895
117	0xbe28f757	-0.16500603
118	0x3df9961a	0.12186833
119	0xbd93d327	-0.072180085
120	0xbd0cb704	-0.034354225
121	0xbe6c3404	-0.23066717
122	0xbcedeba8	-0.029043034
123	0x3cca6d88	0.024710432
124	0x3ef135c7	0.4711134
125	0x3ea88dc0	0.32920647
126	0x3d613267	0.054979708
127	0x3cd58598	0.026064679
128	0xbe07b436	-0.13252339
129	0xbe4584a6	-0.19288883
130	0xbb3bc9f6	-0.0028654314
131	0x3c7c8e69	0.015414813
132	0x3e0cd37c	0.1375255
133	0x3e1d5407	0.15364085
134	0xbdb5428e	-0.08850585
135	0x3bfcfe04	0.0077207107
136	0xbd8532cc	-0.06503829
137	0xbe1f6a14	-0.1556781
138	0xbb7975f4	-0.003806469
139	0xbd665a9d	-0.05623876
140	0xbe108cf8	-0.14116275
141	0xbe7c9eb3	-0.24669914
142	0xbd8be55a	-0.06830855
143	0x3a999777	0.0011718114
144	0xbe86e3dd	-0.2634572
145	0xbf207bb9	-0.62688786
146	0x3c79f50c	0.015256178
147	0xbd83b23a	-0.064304784
148	0x3f1c7da0	0.6112919
149	0x3e96c3f2	0.2944637
150	0xbc4fdbe0	-0.0126867
151	0xbe123fa3	-0.14282088
152	0xbe0f997a	-0.1402339
153	0xbee2ceac	-0.44298303
154	0x3d4497d8	0.047996372
155	0x3d57b21d	0.052660096
156	0x3ec4affb	0.38415512
157	0x3e935537	0.2877595
158	0x3c25caf7	0.010119191
159	0x3d99880c	0.07496652
160	0xbd157ff1	-0.036498968
161	0xbee0f573	-0.43937263
162	0xbd1265a0	-0.03574145
163	0x3e141fc6	0.14465246
164	0x3e394797	0.18093716
165	0xbea343d7	-0.31887695
166	0xbd0673e0	-0.03282535
167	0x3e1c610c	0.15271395
168	0x3be62a6e	0.007024101
169	0xbe565898	-0.20932233
170	0x3d14723f	0.036241766
171	0x3d2a205e	0.041534774
172	0x3e26ca7b	0.16288178
173	0xbd39dc9f	-0.045376416
174	0xbd525451	-0.05134994
175	0xbd005a4e	-0.03133612
176	0x3e00c816	0.12576327
177	0xbe4c56da	-0.19955006
178	0xbdf28022	-0.11840846
179	0xbdd3144e	-0.10306607
180	0x3e1daa70	0.15397048
181	0xbdb566d6	-0.08857505
182	0xbd9dcf72	-0.07705583
183	0xbc391fa0	-0.011299044
184	0xbd972e8f	-0.07381927
185	0xbee93230	-0.45546103
186	0x3d8876b0	0.06663263
187	0x3e0e03b9	0.13868608
188	0x3daf61fc	0.08563611
189	0x3ef1d340	0.47231483
190	0x3c2fb1cf	0.010723545
191	0x3d23d9c8	0.040002614
192	0x3d7ea1b1	0.06216592
193	0xbf0f1ae0	-0.55900383
194	0x3d26b6c5	0.040701646
195	0x3dfd0868	0.12355119
196	0xbe9b1b3a	-0.3029421
197	0x3de487bf	0.11158704
198	0xbd994cb9	-0.07485337
199	0x3dacfde0	0.0844686
200	0x3dfebcdd	0.124383666
201	0xbeff9ad2	-0.49922806
202	0xbd949d68	-0.07256585
203	0x3dd67cce	0.10473023
204	0xbdec9007	-0.115509085
205	0x3e9b2817	0.30304024
206	0x3d6caa0b	0.057779353
207	0x3e0447b0	0.12917972
208	0xbdff2679	-0.1245851
209	0xbf069a22	-0.5257894
210	0x3dcb6e3a	0.099331334
211	0x3e5b1ca2	0.21397641
212	0x3eb746b8	0.35796142
213	0x3e901546	0.2814123
214	0x3c0cda42	0.008596959
215	0x3e9d072a	0.30669528
216	0xbe412197	-0.1886047
217	0xbf07ad00	-0.5299835
218	0xbd34a9b8	-0.04410717
219	0xbd0ec58c	-0.034856364
220	0x3eae5dff	0.34056088
221	0x3da89793	0.082320355
222	0x3d1f390c	0.038872764
223	0x3d674a42	0.056467302
224	0xbd48adfd	-0.048994053
225	0xbedb428b	-0.42824206
226	0x3c1b2be1	0.009470911
227	0x3df15417	0.11783617
228	0x3ded2e1d	0.11581061
229	0xbf04f9e1	-0.51943785
230	0x3bfcfe78	0.0077207647
231	0x3d33cc07	0.043895748
232	0xbdc1a92d	-0.09456096
233	0xbe95cd40	-0.29258156
234	0xbd8df904	-0.069322616
235	0x3e8464bc	0.25858104
236	0xbd986051	-0.07440246
237	0xbf1ce2b6	-0.61283433
238	0x3d6102a6	0.054934166
239	0x3e866e3c	0.26255977
240	0xbd82cea5	-0.063870706
241	0x3e461565	0.19344099
242	0x3d18efc8	0.03733805
243	0xbd95c902	-0.0731373
244	0x3dac61f8	0.084171236
245	0xbeda8560	-0.42679882
246	0x3cd938ba	0.026516307
247	0xbd6bc8a8	-0.057564408
248	0xbdf072d0	-0.11740649
249	0x3e2ce289	0.16883291
250	0x3d86313d	0.0655236
251	0xbd67bfeb	-0.05657951
252	0x3e3262eb	0.17420547
253	0xbc27489b	-0.010210182
254	0x3d047860	0.03234136
255	0x3e32c601	0.17458345

fc1.bias f4 [64]
0	0xbe8f2618	-0.2795875
1	0xbed7e83e	-0.42169374
2	0xbb79820f	-0.0038071906
3	0xbd4f1e5c	-0.050566062
4	0x3ebe9142	0.37220198
5	0x3e98e446	0.2986166
6	0xbd8dabcc	-0.06917533
7	0xbe4f20c7	-0.20227347
8	0xbe53819d	-0.20654912
9	0x3f360a73	0.71109694
10	0xbf0bf9c1	-0.5467797
11	0xbe80b081	-0.25134662
12	0x3e438e78	0.19097316
13	0x3eb37b02	0.35054785
14	0xbe97360f	-0.2953343
15	0x3d97ed74	0.074183375
16	0xbefef99c	-0.49799812
17	0x3e59fac3	0.21287064
18	0xbe42f961	-0.19040443
19	0x3eb27cde	0.3486089
20	0x3ec74327	0.3891842
21	0xbe3c39a4	-0.18381363
22	0x3e58f08b	0.2118551
23	0xbe65de28	-0.22448027
24	0x3ef0884a	0.4697898
25	0x3e8c07d9	0.27349737
26	0x3e405db3	0.18785743
27	0x3ecbdc19	0.3981636
28	0xbed0ceca	-0.40782768
29	0xbd5bbad3	-0.053644966
30	0x3e31eb70	0.17374969
31	0xbe27be71	-0.16381241
32	0x3ec06b03	0.37581643
33	0xbe572f25	-0.21014078
34	0x3e15af3a	0.14617625
35	0xbaedc1e3	-0.0018139448
36	0x3d091692	0.03346879
37	0xbc5a1710	-0.013311163
38	0xbe345e3c	-0.17614073
39	0x3e0e95e7	0.1392437
40	0x3e5fe06c	0.21862954
41	0x3dfca969	0.12337
42	0xbce44835	-0.027866462
43	0xbe46fddb	-0.19432776
44	0x3ece2b1f	0.40267274
45	0xbd6bc428	-0.057560116
46	0xbee30398	-0.4433868
47	0x3ce07bc1	0.02740276
48	0xbe515187	-0.20441256
49	0xbd8db695	-0.069195904
50	0x3eb16c24	0.34652817
51	0x3e4607ef	0.19338964
52	0xbd111d36	-0.03542825
53	0x3df02928	0.117266
54	0xbe21f9f6	-0.15818009
55	0xbd99a59d	-0.07502291
56	0x3e3dd112	0.18536785
57	0x3d2b2b3b	0.041789275
58	0x3e134088	0.14380085
59	0xbdb772f6	-0.08957474
60	0x3ecdcd33	0.40195617
61	0xbeb56839	-0.35431078
62	0x3ec6ef14	0.38854277
63	0xbea09347	-0.31362364

fc2.weight f4 [64, 64]
0	0x3e054cba	0.1301755
1	0xbd4b2ef9	-0.049605343
2	0x3d878847	0.0661779
3	0xbe2f383f	-0.171113
4	0x3c81b82c	0.01583489
5	0xbdd14c0b	-0.10219582
6	0xbde9d935	-0.11418382
7	0xbe01b45c	-0.12666458
8	0xbdd5bf78	-0.104369104
9	0x3e4b4236	0.19849476
10	0xbd903821	-0.07041956
11	0xbdf1efda	-0.11813326
12	0x3e04ae14	0.1295703
13	0x3e592efe	0.21209332
14	0xbd4c226d	-0.04983752
15	0xbe8a3894	-0.2699629
16	0xbe715f48	-0.23571503
17	0xbf3e7e99	-0.7441192
18	0xbe5b8cd4	-0.2144044
19	0x3da77bd0	0.08177912
20	0x3cafff40	0.021484017
21	0xbe562955	-0.20914204
22	0x3e0de1eb	0.13855712
23	0xbe0d528b	-0.13801019
24	0x3dcdc7d1	0.100478776
25	0x3e9c5e75	0.30540815
26	0xbd1d66fd	-0.038428295
27	0x3e1a035c	0.15040344
28	0x38aa17dd	8.1106766e-05
29	0xbd0670bb	-0.032822352
30	0x3d1cd127	0.0382854
31	0xbed3e173	-0.41382942
32	0x3e7004c5	0.2343932
33	0xbdd477df	-0.10374426
34	0x3e6d2a40	0.23160648
35	0xbcedc391	-0.029023917
36	0xbe9aaeb5	-0.30211416
37	0x3ddbdc9d	0.10735438
38	0x3e033184	0.12811857
39	0x3c8067f4	0.015674569
40	0x3d30592d	0.043053795
41	0x3e951cf4	0.29123652
42	0xbe8a7e22	-0.27049357
43	0xbd63ca15	-0.055612642
44	0x3d4724ee	0.048619203
45	0x3e23b6a6	0.15987644
46	0xbf20e25b	-0.6284539
47	0x3e23914f	0.159734
48	0x3e19b4c0	0.15010357
49	0xbdaf3c19	-0.085563846
50	0x3d18452b	0.03717534
51	0x3e2d559f	0.16927193
52	0xbdc6f842	-0.0971532
53	0xbc273164	-0.010204647
54	0xbd823346	-0.06357436
55	0xbe334b09	-0.17509092
56	0x3d2742e5	0.04083528
57	0xbe5a6409	-0.21327223
58	0x3e2f54c3	0.17122178
59	0xbdb0b760	-0.08628726
60	0x3d5625fc	0.05228232
61	0xbd1b5d09	-0.037930522
62	0xbe25fd4d	-0.16209908
63	0x3d7081db	0.05871759
64	0xbde45c76	-0.11150448
65	0x3da6108e	0.08108626
66	0xbd1c85c8	-0.03821352
67	0xbded93f7	-0.11600488
68	0xbc09dc2b	-0.008414309
69	0xbe6a141e	-0.22859237
70	0x3cbc5782	0.022990946
71	0xbd850d65	-0.064966954
72	0xbdc9840d	-0.0983964
73	0x3d85cf08	0.06533629
74	0xbe0e001e	-0.13867232
75	0xbe0b09ca	-0.13577953
76	0xbe032c44	-0.12809855
77	0x3db0114b	0.08597048
78	0x3cb057fc	0.02152633
79	0xbeaaa465	-0.33328548
80	0xbdf0af37	-0.117521696
81	0xbf5867e5	-0.8453353
82	0xbd4b020b	-0.049562495
83	0x3e4512d7	0.19245468
84	0x3dd6d282	0.1048937
85	0xbe026942	-0.12735465
86	0x3e237f1d	0.15966459
87	0xbece3aa7	-0.40279123
88	0xbd24386f	-0.04009288
89	0x3eaad54c	0.33365858
90	0x3dfe6596	0.1242172
91	0x3df033d9	0.11728639
92	0xbe1cf7cd	-0.15328903
93	0x3cbb88de	0.022892412
94	0x3b224df1	0.0024765695
95	0xbdef5d53	-0.11687722
96	0x3e207299	0.15668716
97	0xbe889490	-0.26675844
98	0x3e232830	0.15933299
99	0xbe2b591d	-0.16733213
100	0xbdfd3a30	-0.12364614
101	0x3e12eb8d	0.14347668
102	0xbdd44b55	-0.10365931
103	0x3e23f507	0.1601144
104	0x3b15f385	0.0022880745
105	0x3dcdb7e3	0.10044839
106	0xbd9a35ae	-0.0752977
107	0xbdf60424	-0.120125085
108	0x3dbb5728	0.09147483
109	0xbea421fd	-0.3205718
110	0xbe87a64f	-0.2649407
111	0x3d477411	0.048694674
112	0xbaa02f22	-0.0012221078
113	0xbdebbb93	-0.11510386
114	0x3cfda7ed	0.030963862
115	0x3e3f8eb1	0.18706776
116	0xbe838d8b	-0.25693926
117	0xbde4f720	-0.11179948
118	0xbdd684aa	-0.104745224
119	0x3d23354b	0.039845746
120	0xbdb494d1	-0.08817447
121	0xbd430c77	-0.04761931
122	0xbd6387d9	-0.055549476
123	0xbc13234b	-0.0089805825
124	0xbea407e0	-0.32037258
125	0xbe8a7a9f	-0.27046677
126	0x3c78fdcb	0.015197228
127	0xbdcb7c9a	-0.09935875
128	0x3e2fa3f9	0.17152394
129	0x3e817008	0.25280786
130	0x3dacc521	0.08436037
131	0x3e00a8cb	0.1256439
132	0xbde47b20	-0.11156297
133	0x3e0dc608	0.13845074
134	0xbc876409	-0.016527193
135	0xbdc55b85	-0.096365966
136	0xbe868ee1	-0.26280883
137	0xbe20f9b4	-0.15720254
138	0x3c7d1645	0.015447204
139	0xbe0ed07d	-0.1394672
140	0xbe144dc7	-0.14482795
141	0xbd2a3ce1	-0.041561965
142	0xbd6c22e6	-0.05765047
143	0x3e3d4e5c	0.18486923
144	0x3dbf63c8	0.09345204
145	0x3ed8a2c8	0.42311692
146	0x3e09fa34	0.13474351
147	0xbd79d1bd	-0.060991038
148	0xbe58f5e9	-0.21187557
149	0x3da80d94	0.08205715
150	0x3d707a7d	0.058710564
151	0x3e2868e0	0.16446257
152	0xbe1dc0db	-0.154056
153	0x3e38ba51	0.18039824
154	0xbdf97f53	-0.12182488
155	0xbb45bc67	-0.003017211
156	0xbcea0b30	-0.028569788
157	0x3df36a85	0.11885551
158	0xbd2f826f	-0.042849
159	0xbd1e8400	-0.038700104
160	0xbe2bc6f5	-0.16775115
161	0x3e005e17	0.12535892
162	0xbd9ea243	-0.07745793
163	0xbe889f83	-0.26684198
164	0x3d3860b4	0.0450141
165	0x3d839bca	0.06426199
166	0x3c689c34	0.014197398
167	0x3dc5393c	0.09630057
168	0x3d4841ea	0.048890986
169	0x3e026333	0.12733154
170	0xbd901a69	-0.07036287
171	0xbdb76cfe	-0.089563355
172	0xbe5348dc	-0.20633262
173	0x3d3cc24a	0.046083726
174	0x3d642926	0.055703305
175	0xbdbd02ca	-0.092290476
176	0xbd895964	-0.06706503
177	0x3d8037e4	0.0626066
178	0x3cbb79a7	0.022885157
179	0x3d8c9467	0.06864243
180	0xbccf6fb7	-0.025321824
181	0xbd8bb426	-0.0682147
182	0x3d855d32	0.06511916
183	0x3e18b426	0.14912471
184	0x3ce8e518	0.028429553
185	0x3c447c73	0.011992562
186	0x3c8d26b4	0.01723037
187	0x3bf7cd3b	0.007562307
188	0x3db30d58	0.087427795
189	0xbdb4f877	-0.088364534
190	0x3e39a7a9	0.18130364
191	0x3e399c53	0.18126039
192	0x3e0a15c6	0.13484868
193	0xbde87de8	-0.1135214
194	0xbe44b4b3	-0.19209556
195	0x3e1feed4	0.1561845
196	0x3b3946a0	0.0028270856
197	0x3e02801a	0.1274418
198	0x3e0439b6	0.1291264
199	0x3de21367	0.11038857
200	0xbecb85aa	-0.39750415
201	0xbe6d9a0c	-0.23203295
202	0x3df49aaf	0.11943566
203	0xbef3c3f9	-0.47610453
204	0xbd0a9624	-0.03383459
205	0x3e00e46c	0.12587136
206	0xbdd24f01	-0.10268975
207	0xbdff90f2	-0.12478818
208	0xbda4c34e	-0.08045064
209	0xbe8b1ae3	-0.2716895
210	0x3e7948bf	0.24344157
211	0xbd5e493e	-0.054269068
212	0x3d0656cd	0.032797623
213	0xbe4bc426	-0.19899043
214	0x3de48ae3	0.11159303
215	0xbb9505b9	-0.0045478013
216	0xbe8cbe12	-0.27488762
217	0x3dfcfdbe	0.12353085
218	0x3ddd52e2	0.10806824
219	0x3deda120	0.11602998
220	0xbe4d3d31	-0.20042874
221	0x3df916e1	0.12162567
222	0xbdd9f910	-0.10643208
223	0x3d37db75	0.044887025
224	0xbd92e9c9	-0.07173497
225	0x3e0b04b5	0.13576014
226	0xbe32fcf9	-0.17479314
227	0x3ebb3833	0.36566314
228	0x3e7cd58f	0.24690841
229	0xbe194d6a	-0.14970937
230	0xbe069ce6	-0.1314579
231	0x3d7446b0	0.059637725
232	0xbd324cac	-0.04353015
233	0xbeb1aaa7	-0.3470051
234	0x3d479047	0.048721578
235	0x3d764dc3	0.060132753
236	0x3dfc72dc	0.12326595
237	0x3e878a5e	0.26472753
238	0x3d52870d	0.051398326
239	0x3e08a8b3	0.13345604
240	0xbe86b162	-0.26307207
241	0xbe1224f4	-0.14271909
242	0xbe40885e	-0.1880202
243	0xbe2b5dea	-0.16735044
244	0x3d3ede6d	0.04659884
245	0xbeb704c5	-0.35745826
246	0x3cf84b38	0.030309305
247	0xbe5e9f45	-0.21740444
248	0x3d2474db	0.040150505
249	0x3bd6709f	0.006544187
250	0xbdb1a3c1	-0.08673812
251	0x3c390395	0.011292358
252	0x3e98b58b	0.29826006
253	0xbc499ed8	-0.012305938
254	0x3e85fcd1	0.26169446
255	0x3dad0a73	0.08449259

fc2.bias f4 [64]
0	0x3ebed66c	0.37272966
1	0x3dcd62e2	0.10028626
2	0xbe7e82d9	-0.24854602
3	0x3daf8769	0.08570749
4	0xbe4e6469	-0.20155491
5	0x3d14e603	0.03635217
6	0x3eba1716	0.36345738
7	0x3eb28122	0.34864146
8	0xbe7c7bea	-0.24656644
9	0x3db6bc97	0.089226894
10	0xbdd4461b	-0.10364934
11	0xbdcff61c	-0.101543635
12	0x3e831967	0.25605318
13	0x3e73d38a	0.23811164
14	0xbed25e5e	-0.4108762
15	0x3e825493	0.2545515
16	0x3e9e2dc2	0.30894285
17	0x3d8aaa60	0.06770778
18	0xbe3832e6	-0.17988166
19	0xbeb8ea0f	-0.36116073
20	0xbe8dabb2	-0.27670056
21	0xbea3e2b8	-0.3200891
22	0x3c97036e	0.018434253
23	0xbe1e18c2	-0.15439132
24	0xbe3ab9fa	-0.18235007
25	0xbe2233b4	-0.15840036
26	0x3c8c2e2c	0.01711186
27	0x3e4322da	0.19056264
28	0x3e62aeec	0.2213704
29	0xbd3ffa89	-0.04686979
30	0x3dcd22cc	0.100164026
31	0xbd80aa45	-0.06282476
32	0x3eaac011	0.3334966
33	0x3ec03e48	0.37547517
34	0xbea46afc	-0.32112873
35	0xbe21b889	-0.15793051
36	0xbe7bde8a	-0.2459661
37	0x3cbb31ef	0.022850959
38	0x3d8c517d	0.0685148
39	0x3ebd971d	0.37029353
40	0x3e732d32	0.2374771
41	0x3db70b72	0.0893773
42	0x3db27f08	0.087156355
43	0x3e2cc955	0.16873677
44	0x3e8ede37	0.2790391
45	0xbe6df361	-0.23237373
46	0x3de0238c	0.1094428
47	0xbd545ed6	-0.051848255
48	0xbe1fc3e1	-0.15602066
49	0x3e3fb68a	0.18721977
50	0xbd3e7261	-0.0464958
51	0x3e7d4c7a	0.24736205
52	0xbd9c6f10	-0.07638371
53	0x3e6aa5c0	0.22914791
54	0xbe923e86	-0.28563327
55	0xbe4032ce	-0.1876938
56	0x3ea0a60c	0.31376684
57	0xbe65b71b	-0.2243313
58	0x3e5529f7	0.2081679
59	0x3d45e48c	0.048313662
60	0xbe181199	-0.14850463
61	0xbe9e196e	-0.30878776
62	0x3e0058fb	0.12533943
63	0x3eb6b672	0.3568607

fc3.weight f4 [2, 64]
0	0x3e5a5b9e	0.21324012
1	0x3eb42454	0.35183966
2	0xbd370988	-0.044686824
3	0x3d9928f2	0.07478513
4	0x3c52921d	0.012852219
5	0x3d9a0fd1	0.07522548
6	0x3d777562	0.06041468
7	0x3dc3bb20	0.09557176
8	0xbbe311d4	-0.0069296155
9	0xbe66c6e8	-0.22536814
10	0x3d8191ec	0.063266605
11	0xbd1beaa0	-0.038065553
12	0x3d597aa3	0.05309547
13	0x3e57c306	0.2107049
14	0x3ce9ecfa	0.028555382
15	0xbf000be5	-0.5001815
16	0x3cd486cb	0.02594318
17	0xbce370fc	-0.027763836
18	0xbdd40f85	-0.103545226
19	0xbd6a8bc4	-0.057262197
20	0xbe2691b0	-0.16266513
21	0xbd0d24dc	-0.03445898
22	0x3e3dcc7c	0.18535036
23	0xbe62192d	-0.22079916
24	0xbe786407	-0.24256907
25	0xbde929d3	-0.113849305
26	0xbe165b61	-0.14683296
27	0x3dcb935c	0.09940216
28	0x3e84070a	0.2578662
29	0x3d06233d	0.03274845
30	0x3de7cd2c	0.1131843
31	0x3df50b23	0.11965015
32	0xbd4d0cc8	-0.050061017
33	0x3d2ff560	0.042958617
34	0xbe0bf675	-0.13668235
35	0xbe9ded81	-0.30845264
36	0x3c4b14e4	0.012395117
37	0x3d1e1e97	0.03860339
38	0x3e47db11	0.19517161
39	0x3e26244a	0.1622478
40	0xbe0ebafa	-0.13938513
41	0xbdb1ec0f	-0.08687603
42	0xbd2508a3	-0.04029144
43	0x3ddee085	0.108826675
44	0x3e6992d4	0.22809917
45	0xbe745890	-0.23861909
46	0xbde315e8	-0.11088163
47	0xbaf71397	-0.0018850443
48	0x3c96ccb1	0.018408151
49	0x3ecdbfd9	0.4018543
50	0x3948e556	0.0001915892
51	0x3e9bdd5e	0.30442327
52	0xbe73b5b1	-0.23799779
53	0x3e5c60c6	0.21521291
54	0xbe88f45c	-0.2674893
55	0x3dea9040	0.11453295
56	0xbcb17bc1	-0.021665456
57	0x3e5bdab3	0.21470146
58	0x3f0264bb	0.5093495
59	0x3e01f38d	0.12690563
60	0x3eaad60e	0.33366436
61	0x3db36b9e	0.08760761
62	0xbde96c70	-0.11397636
63	0x3bb5ebeb	0.0055518053
64	0x3e22fa66	0.15915832
65	0xbe26687d	-0.16250797
66	0xbe25d961	-0.16196205
67	0xbee1d5bd	-0.44108382
68	0x3e35cf99	0.17754973
69	0x3f24d697	0.6438994
70	0xbeb457c8	-0.35223222
71	0x3e0f025f	0.13965748
72	0xbe34e2b7	-0.1766461
73	0xbf3952cb	-0.7239196
74	0xbedf2eaf	-0.43590304
75	0xbf190630	-0.59775066
76	0x3e3eb890	0.18625093
77	0x3e522cac	0.20524853
78	0xbe96b118	-0.29431987
79	0x3e798994	0.24368888
80	0x3ecd01d7	0.40040466
81	0x3ea3a954	0.31965125
82	0xbe18a0cc	-0.14905089
83	0xbc9e61d6	-0.019333761
84	0xbe5e8303	-0.21729665
85	0xbe872f21	-0.26403144
86	0xbe92c7af	-0.28667971
87	0xbe805b68	-0.25069737
88	0xbd3db48d	-0.046314765
89	0x3dc1ec2d	0.09468875
90	0x3e199dd2	0.1500161
91	0xbc9559be	-0.018231269
92	0xbec2a26a	-0.38014537
93	0xbe86f1fa	-0.26356488
94	0xbe5af4ae	-0.213824
95	0x3e01f90f	0.12692665
96	0x3e7899e9	0.24277462
97	0x3e411b83	0.18858151
98	0xbf09413f	-0.5361518
99	0xbde461ca	-0.11151464
100	0xbea3b244	-0.31971943
101	0x3ed301e6	0.41212386
102	0x3d8e0717	0.06934946
103	0x3e86b514	0.26310027
104	0x3eec00cc	0.46094358
105	0x3e1c48b8	0.15262115
106	0x3ed2edbb	0.41197
107	0xbe905c01	-0.28195193
108	0xbf0c1186	-0.5471424
109	0xbf786851	-0.97034174
110	0x3eb5cb1a	0.35506517
111	0x3e4a3a53	0.19748811
112	0xbe967f3c	-0.29393947
113	0xbe66dfbb	-0.22546284
114	0xbe512cef	-0.20427297
115	0xbebb14fc	-0.36539447
116	0xbda6ba7d	-0.081410386
117	0x3dbeb32f	0.0931152
118	0x3e470e2a	0.19438997
119	0xbeab8d18	-0.33506083
120	0x3ea113bb	0.31460366
121	0x3e87cbb5	0.26522604
122	0xbede7241	-0.43446544
123	0xbeaa9a40	-0.33320808
124	0xbe9fb7a3	-0.3119479
125	0xbf2b7dae	-0.66988647
126	0x3ca1664a	0.019702096
127	0x3f157390	0.5837946

fc3.bias f4 [2]
0	0x3e248acd	0.16068573
1	0x3eb880ae	0.36035675
