p3_collab-compet/checkpoint_critic_2_maddpg.pth (torch, 32279 bytes, 5 tensors)

fcs1.weight f4 [64, 48]
0.054605108 0.08692487 -0.001055117 -0.07763603 -0.30298907 -0.20301452 0.012111643 0.06275457
-0.07259689 0.02687979 -0.0053569227 0.03803669 -0.12988965 -0.10951092 0.025851002 0.0251926
-0.13943861 -0.08603975 0.0071058446 -0.11404109 0.2391107 0.34666485 0.014316977 0.07208413
0.02771047 0.30218363 -0.09129009 -0.055347696 0.24870834 -0.21135247 0.1041822 0.036781996
-0.032855067 0.19315568 0.07123241 -0.06670238 0.15681462 -0.06070535 -0.06031397 0.046258993
-0.087119326 -0.011192732 -0.032072254 -0.0111292135 -0.33349752 0.3314895 0.038594287 -0.07197699
-0.050300237 -0.41534016 -0.013311843 0.31650332 -0.07539747 0.0094921915 0.001801368 0.18978246
-0.12446341 -0.340928 0.05560407 -0.080754966 0.001113686 -0.15946084 0.0090569835 0.104286924
-0.021914225 -0.14112668 -0.12241402 -0.0869906 -0.032228433 -0.60221446 -0.0005844978 -0.0793175
0.22881338 -0.3383818 0.09074617 0.0057812803 0.07608064 0.06672577 -0.08186843 0.09196558
0.29811502 -0.24460225 0.0036905715 -0.020906087 0.04556599 -0.20871781 0.052656792 -0.032240804
0.15442683 -0.28732818 0.1323014 0.10261502 -0.066505216 -0.5439552 -0.09131401 0.23845218
0.04511291 -0.21410987 0.044989068 -0.21597046 0.12025519 0.10290852 -0.050749425 -0.21695709
-0.016778046 -0.31540227 -0.012531659 -0.055696733 0.072492175 -0.14269027 -0.0062391437 0.014478298
-0.11138952 -0.22114486 -0.044378947 0.15732461 -0.29263493 -0.20534363 0.0066693895 0.26622927
0.13612524 0.023867384 0.019185912 0.08701438 -0.17981115 0.11014527 -0.002408338 0.10362308
0.024390714 -0.14631857 0.029828615 -0.079825014 0.15070061 -0.0110093355 -0.01925322 -0.09678288
0.010744607 -0.28978845 0.09919854 -0.2066212 0.27931026 -0.35136336 -0.10060153 -0.046467092
0.10206665 -0.22290531 -0.061220493 0.13100462 0.0694474 -0.09404217 0.059148457 0.0040385923
0.007630178 -0.057680484 -0.060077477 0.04686481 -0.025940457 0.082992285 0.081243664 -0.0077245436
0.06121604 -0.10421743 -0.008165098 -0.069107994 -0.40795588 0.33993202 -0.0105837295 -0.2715322
-0.09095511 0.20356746 0.016891455 -0.08337922 -0.27232245 -0.0113188205 -0.0052546426 -0.11254985
-0.13916981 0.14336656 0.036206827 -0.036140446 -0.037482753 -0.056114387 -0.047411278 0.10367978
-0.028868707 0.22303395 -0.063939914 -0.039831746 0.39360845 0.3239795 0.0433804 -0.019632598
0.010117836 -0.22982712 0.032095715 -0.06888333 0.20726584 -0.38793838 -0.009730809 -0.020412128
-0.05992963 -0.35553133 0.029346049 -0.031350344 -0.055175453 -0.40513095 -0.04693029 -0.07789049
0.0145225525 -0.35437515 0.004346838 0.265221 -0.32166088 -0.23228914 -0.0897203 0.22299288
-0.18237545 0.3100079 0.059957735 0.006380363 -0.1539657 -0.36403817 -0.086607724 -0.0034677787
-0.14822423 0.26647878 -0.0042062635 -0.028200587 0.1330547 -0.31099066 -0.036764473 -0.0049103196
-0.11639949 0.10288362 -0.06130466 0.07881039 0.26761317 -0.2488926 -0.016437061 0.15750852
0.22430971 -0.24017324 0.032281786 0.021892598 0.05470249 -0.017911289 -0.032417636 -0.096762426
0.18757127 -0.49079427 -0.09133367 -0.10632032 -0.13249837 0.36995274 0.101325005 0.01360177
00000000: 9ba9 5f3d ab05 b23d da4b 8aba a4ff 9ebd
00000010: 6221 9bbe 0ae3 4fbe ea6f 463c 7885 803d
00000020: aead 94bd 0133 dc3c 2089 afbb 5ccc 1b3d
00000030: cb01 05be 4347 e0bd 7bc5 d33c b660 ce3c
00000040: ffc8 0ebe 9c35 b0bd 25d8 e83b 608e e9bd
00000050: 6fd9 743e 0e7e b13e c191 6a3c d8a0 933d
00000060: 1101 e33c d0b7 9a3e 4cf6 babd 44b4 62bd
00000070: 66ad 7e3e c86c 58be 7a5d d53d b8a8 163d
00000080: 0993 06bd 9aca 453e 4ce2 913d 429b 88bd
00000090: 0394 203e 2ca6 78bd c80b 77bd 127a 3d3d
000000a0: 9e6b b2bd b861 37bc 325e 03bd 4e57 36bc
000000b0: 30c0 aabe feb8 a93e 0b15 1e3d ac68 93bd
000000c0: 9f07 4ebd 77a7 d4be eb19 5abc b90c a23e
000000d0: fd69 9abd 2385 1b3c e11b ec3a 5556 423e
000000e0: ace6 febd 1d8e aebe 18c1 633d dc62 a5bd
000000f0: 1af9 913a b449 23be be63 143c 6294 d53d
00000100: 7685 b3bc 8383 10be 34b4 fabd 2128 b2bd
00000110: f601 04bd ba2a 1abf fc38 19ba 3771 a2bd
00000120: 0e4e 6a3e 6140 adbe 21d9 b93d e570 bd3b
00000130: 2bd0 9b3d 85a7 883d a3aa a7bd 7358 bc3d
00000140: 88a2 983e 0379 7abe 84dd 713b 3e43 abbc
00000150: 67a3 3a3d 1fba 55be a6ae 573d ef0e 04bd
00000160: 1122 1e3e ae1c 93be 057a 073e d327 d23d
00000170: e333 88bd a640 0bbf d702 bbbd cf2c 743e
00000180: 51c8 383d 9e3f 5bbe 7546 383d 5c27 5dbe
00000190: 5a48 f63d b4c1 d23d a1de 4fbd 002a 5ebe
000001a0: 1d72 89bc 687c a1be 9651 4dbc 4222 64bd
000001b0: c776 943d 661d 12be bb71 ccbb 6236 6d3c
000001c0: 3020 e4bd cc73 62be b3c6 35bd b419 213e
000001d0: 3fd4 95be 9a45 52be e58a da3b 344f 883e
000001e0: 6a64 0b3e 8885 c33c c62b 9d3c 9834 b23d
000001f0: 6a20 38be d893 e13d 35d5 1dbb 5638 d43d
00000200: 09cf c73c 89d4 15be 245b f43c 4c7b a3bd
00000210: 4351 1a3e 8060 34bc eeb8 9dbc 1a36 c6bd
00000220: 260a 303c 275f 94be 9b28 cb3d 8294 53be
00000230: c101 8f3e e6e5 b3be 2d08 cebd 4754 3ebd
00000240: 5208 d13d 4a41 64be 57c2 7abd 1326 063e
00000250: 703a 8e3d 2e99 c0bd a745 723d 2b56 843b
00000260: 9206 fa3b 5f42 6cbd cd13 76bd 51f5 3f3d
00000270: 1581 d4bc dcf7 a93d 1463 a63d 2b1e fdbb
00000280: acbd 7a3d f36f d5bd e7c6 05bc 7e88 8dbd
00000290: 98df d0be 920b ae3e 6167 2dbc 4506 8bbe
000002a0: ac46 babd fd73 503e f35f 8a3c b9c2 aabd
000002b0: d96d 8bbe 9372 39bc 232f acbb 8980 e6bd
000002c0: 8882 0ebe afce 123e 9c4d 143d 0108 14bd
000002d0: 8487 19bd 33d8 65bd 5432 42bd 1156 d43d
000002e0: 117e ecbc 0363 643e eef2 82bd 9d26 23bd
000002f0: 0c87 c93e a4e0 a53e a5af 313d 8bd4 a0bc
00000300: 48c5 253c cd57 6bbe cc76 033d b412 8dbd
00000310: 7f3d 543e dc9f c6be f96d 1fbc 5637 a7bc
00000320: c678 75bd 3408 b6be 2067 f03c 3869 00bd
00000330: a8ff 61bd 536d cfbe fa39 40bd 0d85 9fbd
00000340: 00f0 6d3c a970 b5be ec6f 8e3b 0ccb 873e
00000350: bcb0 a4be 34dd 6dbe 47bf b7bd 3f58 643e
00000360: a1c0 3abe 5bb9 9e3e 3e96 753d 5d12 d13b
00000370: 2fa9 1dbe 3663 babe 645f b1bd ac43 63bb
00000380: 18c8 17be e86f 883e b2d4 89bb eb04 e7bc
00000390: 7e3f 083e 2b3a 9fbe 5896 16bd bfe6 a0bb
000003a0: db62 eebd a6b4 d23d 981a 7bbd 5767 a13d
000003b0: 9804 893e b4dd 7ebe 04a7 86bc ea49 213e
000003c0: 72b1 653e f9ef 75be e839 043d 1b58 b33c
000003d0: b80f 603d b2ba 92bc 5bc8 04bd 612b c6bd
000003e0: af12 403e 6349 fbbe 260d bbbd 78be d9bd
000003f0: a7ad 07be 726a bd3e 7c83 cf3d f5d9 5e3c

fcs1.bias f4 [64]
0.32486752 0.3649912 -0.042272404 -0.12782113 -0.058203395 -0.08875691 0.20387444 -0.060458742
0.3390665 0.15081376 0.0071626795 0.07337747 0.23389064 -0.10059059 0.117621034 0.2487609
0.3180437 -0.007266259 -0.24023573 -0.0096882945 -0.35080463 0.35632554 0.23231591 0.02318607
-0.04166117 -0.05610497 -0.24754636 0.033416457 -0.052227803 0.071339846 0.051780604 0.17105958
-0.5766827 0.17507778 -0.06386573 -0.24741247 0.19112867 -0.053345747 -0.45262635 0.17480467
-0.10182095 0.19699956 0.042079516 -0.15899867 -0.2034207 -0.12480142 -0.16392042 0.120625846
-0.24735051 0.051641595 0.11102704 -0.0777397 -0.19672872 -0.096783295 -0.14495194 -0.19047187
0.050153162 0.4237806 0.047230504 0.011167211 -0.20606008 0.47351843 0.24135736 -0.14829034
00000000: 0955 a63e 20e0 ba3e d425 2dbd 8be3 02be
00000010: af66 6ebd 2fc6 b5bd 76c4 503e 96a3 77bd
00000020: 209a ad3e ec6e 1a3e e9b4 ea3b ed46 963d
00000030: 0781 6f3e 7002 cebd 4ce3 f03d 2dbb 7e3e
00000040: a0d6 a23e cc19 eebb 5b00 76be a7bb 1ebc
00000050: aa9c b3be 4d70 b63e 39e4 6d3e b7f0 bd3c
00000060: e7a4 2abd 53ce 65bd cb7c 7dbe b2df 083d
00000070: d2ec 55bd a01a 923d e617 543d 3e2a 2f3e
00000080: 7aa1 13bf 9747 333e 09cc 82bd b259 7dbe
00000090: 3cb7 433e 1281 5abd a4be e7be ffff 323e
000000a0: 8187 d0bd 41ba 493e 925b 2c3d 8cd0 22be
000000b0: 844d 50be e397 ffbd c1da 27be af0a f73d
000000c0: 7449 7dbe 2386 533d 2562 e33d fe35 9fbd
000000d0: 4173 49be 5236 c6bd 486e 14be 0f0b 43be
000000e0: 676d 4d3d c5f9 d83e c674 413d aef6 363c
000000f0: 6a01 53be 0271 f23e 6226 773e 6cd9 17be

fc2.weight f4 [64, 68]
-0.059409883 -0.17111596 -0.025968678 0.050362162 0.026594503 -0.014126718 -0.045177344 -0.034033515
-0.017791845 -0.091966525 -0.0096322 0.08835845 -0.14681126 -0.036605254 -0.06983356 0.0676874
-0.15738961 -0.079961516 0.09201965 -0.0023656567 0.008684472 -0.06869212 -0.03005138 0.026852652
0.0726357 -0.16239747 0.03421911 0.025307262 -0.047939755 -0.19849615 0.023058152 -0.04594855
-0.0944437 -0.10012871 -0.007216707 0.0803575 0.082002744 0.020120664 0.05948444 -0.009125292
0.10311347 -0.10049501 -0.23402697 -0.07084027 -0.030452862 -0.1873524 0.023020098 0.004659883
0.05705225 -0.12095838 0.13297515 0.061442602 0.06920607 -0.022451114 0.05229682 -0.02168029
-0.0978714 0.029973323 0.007854966 -0.18232973 0.08580557 0.04559255 0.030376831 -0.027751
-0.18792246 -0.10896126 0.16522458 -0.066812426 -0.260772 0.0436913 0.05808198 -0.0368656
-0.033104602 0.25533792 0.09281671 -0.14279374 -0.011937569 -0.060723312 -0.039311353 0.078962706
-0.22083479 -0.058389943 -0.11309553 -0.055965383 0.056573328 -0.09803595 -0.07983743 0.037155017
0.03520845 0.0443941 -0.050044727 -0.08525198 -0.093193166 0.0024406975 -0.05934681 -0.051821444
-0.1940902 0.0204343 0.04260924 -0.22914866 0.031222006 0.0022782884 -0.22201331 0.03641795
-0.06731552 -0.038263705 -0.06702259 0.034714263 0.1887693 0.004302595 -0.05105029 0.06668364
-0.007197143 -0.12048464 -0.06221939 -0.036808547 0.095209904 -0.055179123 0.0030625695 0.033113014
-0.10778229 0.040869877 0.12419738 0.06824757 -0.002879567 -0.12617049 -0.06960583 -0.06563772
-0.08162858 0.021894537 -0.12141115 0.07319859 0.20182763 -0.2934141 0.24968994 -0.024184678
-0.22142124 0.11377804 -0.052637663 -0.05755015 0.06594964 0.00032131525 0.14346953 0.024458887
-0.058360226 0.083710305 0.08471532 -0.05479981 -0.014677548 0.091888905 0.0572899 -0.10394075
-0.076408006 -0.12099676 0.15427318 -0.06541409 -0.047487184 0.019429429 -0.12036296 -0.15707755
0.06976203 -0.13854578 0.08600125 0.12191919 -0.16549678 -0.2001032 0.007012332 -0.11134025
-0.038975395 -0.040546514 -0.08205243 -0.118564434 -0.052719954 0.08981214 0.017646711 -0.15080965
-0.17325841 -0.18594086 -0.13816307 0.023296671 -0.11028606 -0.007310589 0.12897016 -0.106174156
-0.05370721 -0.13069165 0.051378444 -0.618495 -0.06262039 0.10744235 0.08151121 -0.098349
-0.13030691 0.14094934 -0.058433708 0.048886437 -0.057369642 -0.08985707 -0.26981083 0.009467227
0.12879054 -0.048703298 -0.22318082 0.074484535 0.17417294 -0.06717622 -0.08501532 -0.05577903
-0.06493564 -0.023699867 0.026673002 0.04209395 -0.046365663 -0.10358659 -0.06369122 -0.026582044
-0.13265935 -0.046201322 -0.107846476 -0.06313241 0.13265981 0.1239106 0.0588883 0.023522146
-0.13246989 0.059768416 -0.1783434 0.12189836 -0.08461956 -0.0185761 0.18988256 -0.1024709
-0.014722691 0.027753554 0.014562797 0.047400344 -0.093209095 0.005231672 0.040158454 0.08656061
-0.040446565 -0.19938035 0.0040893783 -0.10278999 -0.2153653 0.042122606 0.10704846 0.047395427
0.165949 0.016111653 0.051982142 0.016861316 -0.040690944 -0.19512542 -0.11545006 -0.027940402
00000000: c757 73bd 0639 2fbe 44bc d4bc 8e48 4e3d
00000010: b7dc d93c c073 67bc e10b 39bd ba66 0bbd
00000020: 34c0 91bc f258 bcbd 60d0 1dbc 46f5 b43d
00000030: b155 16be 64ef 15bd e604 8fbd b19f 8a3d
00000040: be2a 21be ddc2 a3bd cc74 bc3d 2209 1bbb
00000050: 5149 0e3c 74ae 8cbd 502e f6bc 18fa db3c
00000060: 07c2 943d 864b 26be 5629 0c3d 2d51 cf3c
00000070: 7a5c 44bd 9342 4bbe 73e4 bc3c 8c34 3cbd
00000080: b36b c1bd 4810 cdbd 207a ecbb 7992 a43d
00000090: 0ef1 a73d 17d4 a43c f5a5 733d 4082 15bc
000000a0: 282d d33d 54d0 cdbd c4a4 6fbe b414 91bd
000000b0: 4878 f9bc 4fd9 3fbe a594 bc3c efb1 983b
000000c0: 9faf 693d 07b9 f7bd a32a 083e 3dab 7b3d
000000d0: e9bb 8d3d 66eb b7bc 3135 563d dd9a b1bc
000000e0: cd70 c8bd 9d8a f53c 1eb2 003c a5b4 3abe
000000f0: d5ba af3d 41bf 3a3d d5d8 f83c 1156 e3bc
00000100: bf6e 40be 1527 dfbd a230 293e f4d4 88bd
00000110: e883 85be a6f5 323d 5fe7 6d3d 6200 17bd
00000120: b198 07bd a7bb 823e b016 be3d 8638 12be
00000130: cb95 43bc 02b9 78bd f104 21bd 33b7 a13d
00000140: 8422 62be 4b2a 6fbd a19e e7bd f53b 65bd
00000150: 6fb9 673d 12c7 c8bd ce81 a3bd dc2f 183d
00000160: bc36 103d 96d6 353d b3fb 4cbd 9798 aebd
00000170: 0fdc bebd 1cf4 1f3b a415 73bd b942 54bd
00000180: 95bf 46be d565 a73c 0787 2e3d f2a5 6abe
00000190: 4bc5 ff3c 564f 153b 7557 63be fd2a 153d
000001a0: b8dc 89bd 67ba 1cbd 2443 89bd 8b30 0e3d
000001b0: bd4c 413e c8fc 8c3b 1c1a 51bd 6f91 883d
000001c0: 03d6 ebbb a7c0 f6bd c2d9 7ebd 8fc4 16bd
000001d0: 69fd c23d 8103 62bd 64b5 483b 83a1 073d
000001e0: f6bc dcbd 2c67 273d 325b fe3d 62c5 8b3d
000001f0: 1eb7 3cbb d632 01be 808d 8ebd 126d 86bd
00000200: e32c a7bd 2c5c b33c 69a6 f8bd 24e9 953d
00000210: e7ab 4e3e 5f3a 96be b8ae 7f3e f21e c6bc
00000220: 40bc 62be 7604 e93d 979a 57bd b5b9 6bbd
00000230: 9b10 873d 3476 a839 ade9 123e 015e c83c
00000240: 220b 6fbd 4f70 ab3d 3a7f ad3d c475 60bd
00000250: 197a 70bc 4030 bc3d d0a8 6a3d e3de d4bd
00000260: cd7b 9cbd 26cd f7bd caf9 1d3e d3f7 85bd
00000270: ec81 42bd 772a 9f3c db80 f6bd f0d8 20be
00000280: 65df 8e3d f2de 0dbe 6c21 b03d c5b0 f93d
00000290: fd77 29be dae7 4cbe b4c7 e53b 5b06 e4bd
000002a0: aaa4 1fbd 1a14 26bd 1b0b a8bd e9d1 f2bd
000002b0: e1f0 57bd 6def b73d d68f 903c d86d 1abe
000002c0: a76a 31be 4867 3ebe 9f7a 0dbe a9d8 be3c
000002d0: a8dd e1bd aa8d efbb c110 043e d671 d9bd
000002e0: 17fc 5bbd 08d4 05be 3472 523d b055 1ebf
000002f0: 1e3f 80bd bc0a dc3d 59ef a63d 336b c9bd
00000300: 2d6f 05be 0655 103e 2f58 6fbd 253d 483d
00000310: 6efc 6abd fc06 b8bd a524 8abe 6e1c 1b3c
00000320: abe1 033e 1c7d 47bd 8389 64be 598b 983d
00000330: 645a 323e b093 89bd 831c aebd 8d78 64bd
00000340: fafc 84bd 3926 c2bc 5781 da3c b56a 2c3d
00000350: ece9 3dbd 3525 d4bd 8b70 82bd 96c2 d9bc
00000360: dad7 07be 993d 3dbd 9dde dcbd 914b 81bd
00000370: f9d7 073e d7c4 fd3d dc34 713d 84b1 c03c
00000380: 30a6 07be bacf 743d a79f 36be d9a5 f93d
00000390: 054d adbd e82c 98bc 9370 423e 43dc d1bd
000003a0: 7137 71bc 6c5b e33c cc98 6e3c dd26 423d
000003b0: 69e4 bebd 726e ab3b 317d 243d b046 b13d
000003c0: 4cab 25bd 5d2a 4cbe 3100 863b 8f83 d2bd
000003d0: b988 5cbe c188 2c3d 393c db3d b521 423d
000003e0: 89ee 293e 96fc 833c 3aeb 543d be20 8a3c
000003f0: 8cab 26bd f5ce 47be 1571 ecbd 45e3 e4bc

fc2.bias f4 [64]
-0.1885066 -0.097015925 -0.07710317 -0.10686534 -0.14556435 -0.09527317 -0.0032646582 -0.13662948
0.08365225 -0.06209725 -0.043428242 -0.0461191 -0.17587642 -0.023426134 -0.16218765 -0.17452715
0.074198976 -0.051699486 0.0071830223 -0.037341587 -0.14994168 0.0053755315 -0.10202017 -0.089725874
-0.035030633 -0.16637553 0.00526646 0.0043675504 0.06618649 -0.0148907 -0.13996373 -0.07345774
-0.07528609 -0.104568906 -0.04402058 -0.16285688 -0.11162914 -0.07245835 -0.022274591 -0.08200998
-0.16168934 -0.019724237 -0.08791831 0.12575379 0.03314469 -0.0019588247 0.05594538 -0.25265712
-0.008022547 0.022574142 -0.038978755 -0.07537901 0.023792285 -0.009514761 -0.09315883 -0.17468101
-0.03575417 0.10677707 -0.096444 -0.031603828 -0.011604893 0.071853146 -0.15592952 -0.128757
00000000: e007 41be 49b0 c6bd 44e8 9dbd 37dc dabd
00000010: d20e 15be 941e c3bd e0f3 55bb 99e8 0bbe
00000020: df51 ab3d b059 7ebd d0e1 31bd 62e7 3cbd
00000030: f318 34be 2ae8 bfbc 8514 26be 3fb7 32be
00000040: a2f5 973d d7c2 53bd 8f5f eb3b 7ef3 18bd
00000050: 508a 19be 3a25 b03b f3ef d0bd 33c2 b7bd
00000060: 487c 0fbd 595e 2abe 4592 ac3b ab1d 8f3b
00000070: c88c 873d 1ff8 73bc a752 0fbe 0371 96bd
00000080: 982f 9abd 3928 d6bd ec4e 34bd f4c3 26be
00000090: d29d e4bd 0b65 94bd 3479 b6bc d9f4 a7bd
000000a0: e491 25be b994 a1bc 840e b4bd 9ac5 003e
000000b0: bac2 073d a05f 00bb fc26 653d 465c 81be
000000c0: 0071 03bc 68ed b83c 30a8 1fbd 4f60 9abd
000000d0: 0ae8 c23c cde3 1bbc 0fca bebd 94df 32be
000000e0: f772 12bd f0ad da3d 6f84 c5bd 0473 01bd
000000f0: 7322 3ebc be27 933d fdab 1fbe e0d8 03be

fc3.weight f4 [1, 64]
0.0068265945 -0.0116832685 0.014391029 0.0120256925 0.036778387 0.013747468 0.017727993 0.011873699
-0.04611833 0.0003875448 0.03058247 0.008343962 0.011419962 -0.019978689 -0.0044965968 0.016588144
-0.0057896953 0.03472409 -0.008626522 -0.009822604 0.052530393 -0.006040357 -0.06500715 -0.007179851
-0.009207812 -0.014172961 -0.00876678 0.018514192 0.005221369 0.014111966 0.02594928 0.012925975
-0.016896319 0.03430503 0.0053547896 -0.016239695 -0.023476202 0.01623081 -0.009401796 0.01608616
-0.009139956 -0.019377895 0.008492874 0.010805618 -0.013304317 -0.005299921 -0.029430961 -0.013428962
-0.030393848 -0.027581112 0.016728407 -0.0024665764 -0.015847089 -0.0024505549 -0.0090465015 0.007933939
-0.01893974 -0.0072956453 0.019347977 0.010659839 -0.028425453 -0.036196467 0.025784539 -0.0003554228
00000000: a0b1 df3b 2e6b 3fbc 5ac8 6b3c 6907 453c
00000010: efa4 163d 0f3d 613c 4c3a 913c e789 423c
00000020: 93e6 3cbd 622f cb39 1788 fa3c 1db5 083c
00000030: cb1a 3b3c 59aa a3bc 3058 93bb dce3 873c
00000040: 7cb7 bdbb d93a 0e3d 4156 0dbc fdee 20bc
00000050: 1c2a 573d 30ee c5bb 7822 85bd f544 ebbb
00000060: 5ddc 16bc b535 68bc 8aa2 0fbc 13ab 973c
00000070: 0518 ab3b e035 673c 9693 d43c 78c7 533c
00000080: 266a 8abc 6e83 0c3d 3b77 af3b 1c09 85bc
00000090: 2a51 c0bc 7af6 843c fe09 1abc 1fc7 833c
000000a0: c1bf 15bc 64be 9ebc b225 0b3c 0c0a 313c
000000b0: 5afa 59bc f6aa adbb 3319 f1bc 2605 5cbc
000000c0: 85fc f8bc c9f1 e1bc 030a 893c 49a6 21bb
000000d0: c1d1 81bc 7d99 20bb c737 14bc 5afd 013c
000000e0: 8327 9bbc 4f10 efbb a67f 9e3c 9ba6 2e3c
000000f0: 7fdc e8bc bf42 14bd 193a d33c 0a58 bab9
